model_checkpoint/421_muzero_prediction_function.pt (torch, 20431 bytes, 6 tensors)

weight f4 [64, 31]
0	0x3e645158	0.22296655
1	0xbd19eb99	-0.0375782
2	0x3d72ece3	0.059307944
3	0x3bb22413	0.0054364293
4	0xbd956a65	-0.07295684
5	0x3ce265cc	0.027636431
6	0x3ada39f4	0.0016649351
7	0x3d7b4e6f	0.061354097
8	0x3e7ecbe3	0.24882464
9	0xbe1b7712	-0.1518214
10	0x3e3c6d1a	0.18400994
11	0x3d7ba2ff	0.061434742
12	0xbde70ca9	-0.112817116
13	0xbd1ea1cf	-0.03872853
14	0xbcc8bcde	-0.024504121
15	0xbdc80f5a	-0.09768553
16	0x3dbaea0f	0.091266744
17	0x3d04587d	0.03231095
18	0xbecf5b3a	-0.40499288
19	0x3d01c049	0.031677518
20	0xbd87f736	-0.066389486
21	0xbc7010dc	-0.014652457
22	0x3d881953	0.06645455
23	0xbda12207	-0.07867818
24	0x3cc5e4c2	0.024156932
25	0xbe0eb049	-0.13934435
26	0xbdd994b5	-0.10624067
27	0x3c9f3e0c	0.019438766
28	0xbd6e441e	-0.05817043
29	0xbd91618f	-0.07098686
30	0x3cd543a3	0.026033228
31	0x3d2ec5e2	0.042669185
32	0x3cdc7693	0.02691201
33	0x3a7d9920	0.00096740015
34	0xbc07e935	-0.008295347
35	0x3bc793a7	0.0060905996
36	0xbcd5479f	-0.026035128
37	0xbc8b7e2f	-0.017027942
38	0x3c399ec8	0.01132936
39	0xbc72b3a6	-0.014813339
40	0xbc61fe03	-0.013793471
41	0xbd10e77e	-0.03537702
42	0xbc940eae	-0.018073406
43	0x3cf6d35f	0.030130086
44	0xbc6be75a	-0.01439842
45	0x3b953df4	0.0045545045
46	0xba5cb005	-0.0008418563
47	0x3cbe3be9	0.023221927
48	0xbca2e298	-0.019883439
49	0xbce965da	-0.02849095
50	0x3cc3967b	0.023875466
51	0xb9d36975	-0.00040323628
52	0x3c036fbc	0.008022245
53	0xba3f5672	-0.0007298953
54	0xbd2237db	-0.03960405
55	0xbd187f2f	-0.037230667
56	0x3ce5434f	0.027986197
57	0xbcf3f3b7	-0.029779298
58	0x3c2f1eed	0.010688526
59	0x3bdf548b	0.006815498
60	0xbbee22de	-0.00726734
61	0x3c1dc8c6	0.009630388
62	0xbd2b4688	-0.04181531
63	0x3c2dad8e	0.010600461
64	0x3c698845	0.014253681
65	0xbccd0674	-0.025027491
66	0xbc1f08bf	-0.009706675
67	0x394fe82e	0.00019827552
68	0xbc5b29af	-0.013376637
69	0xbc991411	-0.018686326
70	0xba2f8788	-0.0006695916
71	0xbb11af62	-0.002222978
72	0xbcfe3eef	-0.031035868
73	0xbc625af9	-0.013815635
74	0x3c51fa83	0.012816074
75	0xbbfdd67f	-0.007746517
76	0xbce56956	-0.02800433
77	0xbc889baf	-0.016675798
78	0x3c7b727e	0.015347121
79	0xbce99ddc	-0.028517656
80	0x3b647708	0.0034860987
81	0x3cea7afe	0.0286231
82	0x3c1fdb47	0.00975687
83	0x3d1b6fa8	0.03794828
84	0xbc9da9f4	-0.019246079
85	0xbc5f6984	-0.013635997
86	0x3c79640a	0.015221605
87	0xbd286960	-0.04111612
88	0x3bc256ae	0.005930743
89	0xbbc98ade	-0.0061505875
90	0xbd6eef18	-0.058333486
91	0x3c566353	0.013085204
92	0x3a856e56	0.0010179977
93	0xbd87ee58	-0.06637257
94	0xbca87de7	-0.020567847
95	0xbd0a59cc	-0.033777043
96	0xbc6354b8	-0.013875179
97	0xbca84e3e	-0.020545121
98	0xbcb52d45	-0.022116313
99	0xbb2db5fc	-0.0026506176
100	0x3bf8241a	0.007572663
101	0x3ba70f39	0.00509825
102	0x3c7960ec	0.015220862
103	0xbd248191	-0.040162627
104	0xbc30212c	-0.010750096
105	0xbcfaf67e	-0.030635115
106	0xbc41c8fc	-0.011827704
107	0xbaced58b	-0.0015780193
108	0xbba0abc8	-0.0049032904
109	0xbcbfb247	-0.023400439
110	0x3ca12403	0.019670492
111	0x3d0ac950	0.033883393
112	0xbd427d01	-0.047482494
113	0xbc44133b	-0.0119674755
114	0x3c355a39	0.011068874
115	0x3c562a6d	0.0130716385
116	0xbbbe6ba9	-0.005811174
117	0x3cbd7aa4	0.023129769
118	0xbc2edad6	-0.010672292
119	0x3b456570	0.0030120276
120	0xbb94e2e6	-0.00454365
121	0xbc73d63c	-0.01488262
122	0xbc50b4f0	-0.012738451
123	0xbbfa08aa	-0.0076304274
124	0xbcc5eb3f	-0.024160026
125	0xb9a2af1c	-0.00031029515
126	0xbb29fd1b	-0.0025938216
127	0xbc72a7fe	-0.01481056
128	0xbc368792	-0.011140721
129	0xbcf65705	-0.030070791
130	0xbc3ab8b7	-0.0113965785
131	0x3c5c09a4	0.013430033
132	0x3af97330	0.0019031521
133	0x3bd0eea0	0.0063761026
134	0xbb93d5ea	-0.0045115845
135	0xbc8badce	-0.01705065
136	0xbb023dee	-0.0019873339
137	0xbb695779	-0.0035605116
138	0x3c2df47b	0.010617371
139	0x3c767f7f	0.015045046
140	0x3a9a07c5	0.0011751583
141	0x3b88826d	0.0041659386
142	0xbceabef7	-0.028655512
143	0xbcff77bf	-0.03118503
144	0xbba5ba4d	-0.005057609
145	0xbbc97e59	-0.006149095
146	0x3c78fe50	0.015197352
147	0xbc55bfe9	-0.013046243
148	0xbc09369a	-0.008374834
149	0xbae87460	-0.0017734878
150	0xbcdb0e31	-0.026740165
151	0xbb08dbe8	-0.0020883027
152	0xbc2802cb	-0.010254572
153	0xbcb7e2d4	-0.022447027
154	0x3b9a91ff	0.004717111
155	0xbcbba5a1	-0.022906126
156	0xbccb7477	-0.024835808
157	0xbcc99eee	-0.024611916
158	0xbaa8a122	-0.0012865404
159	0xbcc8bdb2	-0.024504516
160	0xbd3767df	-0.044776794
161	0xbce3083f	-0.027713893
162	0x3c12308a	0.008922705
163	0x3bec6b6c	0.007214954
164	0xba0ffab2	-0.00054923736
165	0xbcedcd1b	-0.029028466
166	0xbc88731c	-0.01665645
167	0xbc79bf2a	-0.015243331
168	0xbc9c6bb9	-0.019094335
169	0xbccc812a	-0.024963934
170	0xbaf3d63d	-0.0018603277
171	0xbbd7811d	-0.006576671
172	0x3b1fabed	0.002436395
173	0xbd6d348f	-0.057911452
174	0xbcff8d72	-0.031195376
175	0xbc66e7e9	-0.014093378
176	0x3cb83cb7	0.022489889
177	0xbd490949	-0.04908112
178	0xbcb36679	-0.021899449
179	0x3bbfe688	0.005856339
180	0x3c443808	0.0119762495
181	0xbcde9077	-0.027168496
182	0x3c93c7c1	0.018039586
183	0xbc997f1a	-0.018737365
184	0xbc5410d7	-0.012943468
185	0x3caa569a	0.020793248
186	0x3d6915af	0.056905445
187	0xbd392f6b	-0.045211237
188	0x3c88257e	0.01661944
189	0xbd31e332	-0.04342956
190	0xbc8b693e	-0.017017957
191	0xbc3603d8	-0.011109315
192	0x3d31a165	0.04336681
193	0x3d210aa0	0.039316773
194	0x3bffb3ff	0.0078034396
195	0xbc8ee694	-0.017443933
196	0x3cdcbb3a	0.026944745
197	0x3ce6b7b0	0.02816376
198	0x3c8a5f8a	0.01689126
199	0x3c6cda62	0.014456363
200	0xbcceb74a	-0.025233883
201	0xbbb975ce	-0.0056597954
202	0xbce9726f	-0.028496949
203	0x3c1d8ddf	0.009616344
204	0xbd9011a0	-0.07034612
205	0xbbde659e	-0.006787016
206	0xbd0a9622	-0.033834584
207	0xbd2c064c	-0.041998193
208	0xbbedbb13	-0.007254967
209	0xbcc85848	-0.024456158
210	0xb9c53235	-0.00037612175
211	0xbce58aca	-0.028020281
212	0x3c30fc65	0.010802363
213	0xbcb144cf	-0.021639256
214	0xbb9a1557	-0.004702251
215	0xbbc39428	-0.0059685893
216	0xbc3c28c9	-0.011484333
217	0x3c18b080	0.009319425
218	0x3cd23ac9	0.025662797
219	0x3cb3ac92	0.021932874
220	0x3c2e75d2	0.010648208
221	0x3ce478df	0.027889667
222	0x3cdf7c35	0.027280906
223	0xbca4c5f4	-0.020113923
224	0xbc05680c	-0.0081424825
225	0xbbe98e84	-0.007127585
226	0x3ce4bd28	0.027922228
227	0x388fe238	6.860908e-05
228	0xbc7f1ce0	-0.015570849
229	0x3c03dc33	0.008048105
230	0xbbb040c1	-0.005378813
231	0x3d30e7cf	0.04318982
232	0x39a78b80	0.00031956658
233	0x3c579538	0.013158135
234	0x3b130e60	0.0022438988
235	0x3caab402	0.020837788
236	0x3cd9f5ae	0.026606407
237	0x3c863ab9	0.016385423
238	0x3ccf8266	0.025330734
239	0x3ba5dac2	0.0050614784
240	0x3cfa7328	0.030572489
241	0x3ccf29f2	0.025288556
242	0xbc569962	-0.013098093
243	0x3ab96df8	0.0014147153
244	0x3cc8c119	0.024506139
245	0x3c5a29fd	0.013315675
246	0x3c7c6464	0.015404794
247	0x3c2975f4	0.010343064
248	0x3c9e01df	0.019288002
249	0x3c2c4e4b	0.010516713
250	0x3d3d2e1b	0.046186548
251	0x3cfe85a2	0.03106958
252	0x3b4cc1ce	0.0031243446
253	0xbcdb7b8f	-0.026792316
254	0xbc7e4b75	-0.01552092
255	0x3caecb57	0.021337194

bias f4 [64]
0	0xbda22c08	-0.079185545
1	0xbd065127	-0.032792237
2	0xbc1b29b2	-0.00947039
3	0xbc930c71	-0.017950268
4	0xbc9e88ba	-0.019352306
5	0x3d5e76b1	0.05431241
6	0xbca2c14f	-0.019867567
7	0x3c1a3ae8	0.009413458
8	0xbc6e391b	-0.014539982
9	0x3c0a920f	0.008457675
10	0x3af1dcbe	0.0018452627
11	0x3c31795c	0.010832157
12	0x3c5310ea	0.012882451
13	0xbb8aba07	-0.004233602
14	0xbf3aa03f	-0.72900766
15	0xbe0ded14	-0.1385997
16	0xbed0cc82	-0.40781027
17	0xbcf5e61b	-0.03001695
18	0xbc8be1a2	-0.017075364
19	0x3d2298e7	0.0396966
20	0xbd21fbdb	-0.03954683
21	0xbbd7dfc4	-0.0065879542
22	0xbe5c8ca0	-0.21538019
23	0x3c847d80	0.016173124
24	0xbcbb748c	-0.022882722
25	0x3cfe0504	0.031008251
26	0xbd49e7c9	-0.049293313
27	0xbc4ced05	-0.012507682
28	0x3e906c21	0.28207496
29	0xbd8f2433	-0.06989326
30	0xbcc9b984	-0.024624594
31	0x3c349559	0.011021935
32	0x3e36aa6e	0.17838451
33	0xbcb498b3	-0.022045469
34	0xbf5c59d9	-0.86074597
35	0xbe1f9adc	-0.15586418
36	0xbc86054e	-0.016359951
37	0xbb9c8434	-0.004776502
38	0xbdcc7d21	-0.09984804
39	0xbebb9964	-0.36640465
40	0xbe74bfa9	-0.23901238
41	0xbeb68b48	-0.35653138
42	0x3c658e28	0.0140109435
43	0xbc79e433	-0.015252161
44	0x3ceecd8a	0.029150743
45	0xbc441d22	-0.011969836
46	0x3c5dfd6f	0.013549193
47	0xbb1aa840	-0.002359882
48	0xbe86ca70	-0.26326323
49	0xbc67f28a	-0.014156947
50	0xbf02aa11	-0.5104075
51	0x3c9d4e9a	0.01920252
52	0x3c4bcfec	0.012439709
53	0xbd9174d9	-0.07102365
54	0x3d67eb60	0.056620955
55	0xbcfa5051	-0.030555876
56	0xbcda87db	-0.026676109
57	0x3b6fceed	0.0036591843
58	0xbe216c6c	-0.15764016
59	0xbd051fe8	-0.03250113
60	0xbc3ad2a8	-0.011402763
61	0x3c9029bc	0.017598026
62	0x3e8e021f	0.27735993
63	0xbc22fbc2	-0.009947719

weight f4 [2, 64]
0	0xbd1f66e0	-0.03891647
1	0x3c225652	0.009908276
2	0x3c377df2	0.011199461
3	0x3b9c507a	0.0047703357
4	0x3c02492b	0.007952015
5	0x3c09cd45	0.0084107565
6	0xbac0da09	-0.0014713417
7	0xbcab442b	-0.020906528
8	0xbaf83aa8	-0.0018938379
9	0x3b2e8ffb	0.0026636112
10	0xbb43e692	-0.002989207
11	0xbc1686ed	-0.009187442
12	0xbadc0295	-0.0016785437
13	0x3b58d822	0.003308781
14	0x3ce6a258	0.028153583
15	0xba7b5522	-0.0009587576
16	0xbe3eaadc	-0.18619865
17	0xbc325363	-0.010884139
18	0x3bbc3877	0.005744036
19	0xbc836240	-0.01603806
20	0xbb1f4f4c	-0.002430874
21	0x3c60f799	0.013730907
22	0xbde258f7	-0.11052125
23	0xbcda2313	-0.026628053
24	0x3bd362e7	0.006450999
25	0xbc8782af	-0.016541807
26	0x3b7d35f7	0.0038636902
27	0x3bd00da0	0.0063492805
28	0xbea07ac6	-0.3134367
29	0xbd8c44e8	-0.0684908
30	0x3c4dacb6	0.0125533845
31	0xbc44fbe3	-0.012022945
32	0x3cfc9dd8	0.030836985
33	0xbc9efb6e	-0.019407
34	0xbecce0e1	-0.4001532
35	0x3e950a2e	0.2910933
36	0x3b430177	0.0029755512
37	0x3c571b49	0.013129064
38	0x3daf8467	0.085701756
39	0x3ddea28c	0.10870847
40	0x3c7b034d	0.015320611
41	0x3d27361a	0.04082308
42	0xba13b0f3	-0.00056339725
43	0x3b823c3f	0.003974467
44	0x3bb5c3fc	0.005547045
45	0xbc428df8	-0.011874668
46	0xbbf56936	-0.0074893488
47	0xbbbe5189	-0.0058080596
48	0x3de4a608	0.111644804
49	0xbcbdefbb	-0.023185601
50	0x3ed12665	0.40849605
51	0x3aba3f73	0.0014209583
52	0xbc9b0b4b	-0.018926283
53	0xbcde5a7f	-0.027142761
54	0xbcf13c78	-0.029447779
55	0x3c39d0ef	0.011341318
56	0xbbacb366	-0.0052704094
57	0xbc745b18	-0.014914297
58	0x3cd1c94c	0.025608681
59	0xbca74012	-0.020416293
60	0xbaa4d0b1	-0.0012574402
61	0x3c17524c	0.00923593
62	0x3dd889b4	0.1057314
63	0x3998ff48	0.000291819
64	0x3d290321	0.04126275
65	0xbc1ef4dc	-0.009701934
66	0xbc4eba21	-0.012617619
67	0xbba7be7b	-0.0051191426
68	0xbc077c3e	-0.008269368
69	0xbc09dbf1	-0.0084142545
70	0xba873d7f	-0.001031801
71	0x3ca95bc4	0.02067364
72	0x35707480	8.9576497e-07
73	0xbb383ca4	-0.0028112317
74	0x3b32bfc7	0.0027274953
75	0x3c1d6058	0.00960549
76	0x3ac482a0	0.0014992543
77	0xbb486f87	-0.0030584054
78	0xbcc4c08b	-0.024017593
79	0x3b563118	0.003268307
80	0x3e3d038b	0.18458383
81	0x3c453d60	0.012038559
82	0xbbcb2d54	-0.006200472
83	0x3c89ab9b	0.01680546
84	0x3aa12c62	0.0012296552
85	0xbc63ea92	-0.013910906
86	0x3de64167	0.11242943
87	0x3cdef828	0.02721794
88	0xbbadde5c	-0.0053060483
89	0x3c8a7ba2	0.016904656
90	0xbb8e67ac	-0.0043458547
91	0xbbd42606	-0.0064742593
92	0x3ea0999d	0.31367198
93	0x3d964c03	0.07338717
94	0xbc639d2e	-0.013892455
95	0x3c46d796	0.012136361
96	0xbcf6d230	-0.030129522
97	0x3c96ccf5	0.018408278
98	0x3ecda67e	0.40166086
99	0xbe987be5	-0.29782024
100	0xbb3cc5dc	-0.0028804457
101	0xbc3c93b3	-0.011509824
102	0xbdab0cf4	-0.0835208
103	0xbdd8686b	-0.10566791
104	0xbc9232da	-0.017846514
105	0xbd1a86f7	-0.03772637
106	0xba25a660	-0.00063190423
107	0xbafde335	-0.0019370081
108	0xbb7be946	-0.0038438602
109	0x3c52debc	0.012870487
110	0x3bc9899c	0.0061504375
111	0x3c007eb0	0.007842705
112	0xbde8c265	-0.11365203
113	0x3cbcea4e	0.023060944
114	0xbed0b767	-0.40764925
115	0xbaab5a68	-0.0013073208
116	0x3c9b802d	0.018982017
117	0x3ced07d2	0.028934393
118	0x3ce8c829	0.028415756
119	0xbc3ae81a	-0.011407876
120	0x3b75d84b	0.0037512954
121	0x3c816735	0.015796283
122	0xbcd4d02e	-0.025978174
123	0x3cac715d	0.02105015
124	0x3af11c63	0.0018395301
125	0xbc08e0d7	-0.008354387
126	0xbdde33e0	-0.10849738
127	0xbb1de5ed	-0.0024093345

bias f4 [2]
0	0xbe517390	-0.2045424
1	0x3e4a8e9f	0.19780968

weight f4 [31, 64]
0	0x402798ed	2.6187088
1	0x3f02451b	0.50886697
2	0x3eba0db6	0.36338586
3	0xbea47426	-0.32119864
4	0xbe5dc2c5	-0.2165633
5	0x3fb3eab4	1.4056001
6	0xbe54f224	-0.20795494
7	0x3f3bf2ba	0.73417246
8	0x3f35c77e	0.71007526
9	0xbe075f74	-0.13220006
10	0x3f1a7840	0.60339737
11	0xbe4d42b5	-0.20044978
12	0xbe94feac	-0.2910055
13	0x3f1ec2b1	0.62015826
14	0xbfa342bf	-1.2754744
15	0x4006e0b1	2.107464
16	0x408de9d9	4.434796
17	0xbe895760	-0.26824474
18	0xbe5d87e9	-0.21633877
19	0x3f1e45d0	0.61825275
20	0xbe6e8209	-0.23291792
21	0xbdb2ad75	-0.087244906
22	0x3f39e071	0.72608095
23	0xbd3c39c3	-0.045953523
24	0xbe20da71	-0.15708329
25	0xbde7fa80	-0.11327076
26	0xbe3d82d5	-0.1850694
27	0x3f054cdc	0.52070403
28	0x3e3b73d8	0.1830591
29	0x3f0ae911	0.5426188
30	0xbe1bc673	-0.15212421
31	0xbe5ab7e6	-0.21359214
32	0x3f67c858	0.90540075
33	0x3f9f8b5a	1.2464402
34	0x4112924e	9.160719
35	0x3f8f1227	1.1177415
36	0x3f2cc5e9	0.67489487
37	0xbe082b2e	-0.13297722
38	0x401ae99f	2.420509
39	0xbf981ca0	-1.1883736
40	0x4033dc74	2.8103304
41	0x3f328d4e	0.69746864
42	0xbe419e81	-0.1890812
43	0x3f710a42	0.9415628
44	0x3f311e20	0.6918659
45	0xbe549911	-0.20761515
46	0xbe2ed99b	-0.17075197
47	0x3f3a1b44	0.72697854
48	0x407d0f84	3.954072
49	0xbe1a7b6c	-0.15086144
50	0x3e20cf96	0.15704188
51	0xbe22db5e	-0.15903994
52	0x3e652373	0.22376804
53	0xc020471b	-2.50434
54	0x401e2160	2.470787
55	0xbe42487f	-0.18972968
56	0x3f16a990	0.5885248
57	0xbe34de17	-0.17662846
58	0xbff7f8ec	-1.937284
59	0xbd2a5d42	-0.041592844
60	0xbe4924d6	-0.19642958
61	0x3f23271a	0.6373154
62	0x3f819d3a	1.0126107
63	0x3f6b9455	0.9202321
64	0x40273e33	2.6131713
65	0x3f01d9fb	0.50723237
66	0x3ebdceda	0.37071878
67	0xbeaa5519	-0.3326805
68	0xbe53dfae	-0.20690796
69	0x3fb9fd09	1.4530345
70	0xbe564334	-0.20924073
71	0x3f3dafd9	0.7409645
72	0x3f38e46e	0.72223556
73	0xbdf98d46	-0.12185149
74	0x3f1cf997	0.61318344
75	0xbe40f0b5	-0.18841822
76	0xbe8fd2bf	-0.28090474
77	0x3f226ad8	0.6344428
78	0xbfa194fc	-1.2623591
79	0x400bad4e	2.1824527
80	0x408eba90	4.4602737
81	0xbe91a8b9	-0.28449038
82	0xbe64e104	-0.22351462
83	0x3f256f20	0.6462269
84	0xbe68ce70	-0.22735
85	0xbd8c0ff1	-0.06838978
86	0x3f3bdf6b	0.73387784
87	0xbd2ff910	-0.042962134
88	0xbe3ab63c	-0.1823358
89	0xbddf9dc0	-0.1091876
90	0xbe4b98d3	-0.19882517
91	0x3f0922fa	0.53568995
92	0x3e39d04e	0.18145868
93	0x3f0fc97a	0.56166804
94	0xbe21b793	-0.15792684
95	0xbe6fd147	-0.23419677
96	0x3f6c4422	0.9229146
97	0x3fa1d521	1.2643167
98	0x4112a29f	9.164702
99	0x3f914649	1.1349574
100	0x3f2e3023	0.680422
101	0xbe060720	-0.13088655
102	0x401b43be	2.4260097
103	0xbf96964a	-1.1764615
104	0x4037baac	2.8707685
105	0x3f3742ed	0.71586496
106	0xbe43683c	-0.19082731
107	0x3f73297c	0.94985175
108	0x3f33aa40	0.70181656
109	0xbe498411	-0.19679286
110	0xbe2dd373	-0.16975193
111	0x3f392951	0.7232867
112	0x407f8e72	3.9930692
113	0xbe1df36c	-0.1542489
114	0x3e0df9f9	0.13864888
115	0xbe3196d6	-0.17342696
116	0x3e5cafb9	0.21551408
117	0xc020168f	-2.5013769
118	0x401d431a	2.4572206
119	0xbe535062	-0.20636132
120	0x3f14d9a9	0.58144623
121	0xbe35be9b	-0.17748491
122	0xbffa84b6	-1.957175
123	0xbd472904	-0.0486231
124	0xbe482d8f	-0.19548629
125	0x3f284fd7	0.65746826
126	0x3f86faa2	1.0545237
127	0x3f715ad3	0.9427921
128	0x4027ad1b	2.6199405
129	0x3f014d29	0.5050836
130	0x3eb93dd9	0.3618
131	0xbea2b50e	-0.3177876
132	0xbe4f851c	-0.20265621
133	0x3fb5e481	1.4210359
134	0xbe52ae30	-0.2057426
135	0x3f3b7aa4	0.7323401
136	0x3f35d47d	0.71027356
137	0xbe074d5c	-0.13213104
138	0x3f1c1832	0.6097442
139	0xbe4a974d	-0.19784279
140	0xbe91fbb8	-0.2851236
141	0x3f2149d5	0.63003284
142	0xbfa26498	-1.2686949
143	0x40079356	2.1183677
144	0x408db864	4.4287586
145	0xbe9296fb	-0.28630814
146	0xbe5578a0	-0.20846796
147	0x3f235215	0.6379712
148	0xbe6be19f	-0.23035286
149	0xbd8b0575	-0.0678815
150	0x3f3c44e2	0.73542607
151	0xbd072af7	-0.03299996
152	0xbe2ba646	-0.16762647
153	0xbdf55a6e	-0.11980139
154	0xbe3c4ac7	-0.183879
155	0x3f095b96	0.53655374
156	0x3e2d1739	0.1690339
157	0x3f0d0741	0.55089194
158	0xbe319438	-0.17341697
159	0xbe5f5817	-0.21810947
160	0x3f6b5c41	0.91937643
161	0x3fa0a389	1.2549907
162	0x4112b696	9.169577
163	0x3f8f4f09	1.1195995
164	0x3f2d4f08	0.6769872
165	0xbdf81509	-0.12113387
166	0x401a546e	2.4114032
167	0xbf977647	-1.183297
168	0x4035704a	2.8349786
169	0x3f34e82f	0.70666784
170	0xbe4e7220	-0.20160723
171	0x3f6d21fa	0.9262997
172	0x3f2f6325	0.6851066
173	0xbe5b86ce	-0.21438143
174	0xbe3ca706	-0.1842309
175	0x3f38bf3c	0.721668
176	0x407d1d30	3.9549065
177	0xbe1fe958	-0.15616357
178	0x3e1a165f	0.15047596
179	0xbe2ba138	-0.16760719
180	0x3e5756df	0.21029232
181	0xc0202363	-2.5021598
182	0x401d6bd5	2.4597065
183	0xbe4cca5f	-0.19999073
184	0x3f17d523	0.59309596
185	0xbe28c9f0	-0.16483283
186	0xbff7b8bf	-1.9353255
187	0xbd41bc68	-0.04729882
188	0xbe511d92	-0.20421436
189	0x3f2474e2	0.6424085
190	0x3f83f6ec	1.030973
191	0x3f6bdf04	0.9213717
192	0x4027ad25	2.619943
193	0x3f019289	0.5061422
194	0x3eb34244	0.35011494
195	0xbea5394c	-0.32270277
196	0xbe5c3203	-0.21503453
197	0x3fb6d0ea	1.4282506
198	0xbe543f86	-0.20727357
199	0x3f3a7b3a	0.7284428
200	0x3f364b7d	0.71208936
201	0xbe0803fe	-0.13282773
202	0x3f1c37f3	0.6102287
203	0xbe489db2	-0.19591406
204	0xbe8e84a8	-0.27835584
205	0x3f219f36	0.6313356
206	0xbfa1e041	-1.2646562
207	0x400a362a	2.159556
208	0x408e9579	4.455746
209	0xbe911193	-0.2833372
210	0xbe59afc3	-0.21258454
211	0x3f24e55e	0.64412487
212	0xbe6bd5b5	-0.23030742
213	0xbdb0b4d0	-0.08628237
214	0x3f3a2a6d	0.72720987
215	0xbd1c7ef2	-0.038207002
216	0xbe31224f	-0.17298244
217	0xbdeb12be	-0.11478184
218	0xbe3da601	-0.18520357
219	0x3f0a0a9c	0.5392244
220	0x3e41ddab	0.18932216
221	0x3f0dcca3	0.55390376
222	0xbe1dd899	-0.15414657
223	0xbe71ec65	-0.23625334
224	0x3f6a46f7	0.91514534
225	0x3fa338b1	1.2751676
226	0x4112a2f1	9.164781
227	0x3f91b185	1.13823
228	0x3f310909	0.6915441
229	0xbe027c6d	-0.12742777
230	0x401b058e	2.422214
231	0xbf95af08	-1.169404
232	0x4036f212	2.8585248
233	0x3f33921a	0.7014481
234	0xbe3e71a9	-0.18598045
235	0x3f6ee2a9	0.93314606
236	0x3f319de4	0.69381547
237	0xbe3a8f9e	-0.18218848
238	0xbe365a80	-0.1780796
239	0x3f37f2b0	0.71854687
240	0x407ef9b2	3.9839902
241	0xbe244e02	-0.16045383
242	0x3e1586a3	0.14602141
243	0xbe25e8d8	-0.16202104
244	0x3e51bb24	0.20481545
245	0xc0205316	-2.5050712
246	0x401de447	2.467058
247	0xbe48cd73	-0.19609623
248	0x3f17a179	0.5923076
249	0xbe40227c	-0.18763155
250	0xbff8c1a5	-1.9434096
251	0xbd20022e	-0.03906458
252	0xbe471d7c	-0.19444841
253	0x3f2683c3	0.650448
254	0x3f85349e	1.0406682
255	0x3f7010f2	0.93775856

bias f4 [31]
0	0xbff68da3	-1.9261974
1	0xbff603ff	-1.921997
2	0xbff6a131	-1.9267942
3	0xbff95f9f	-1.9482306
4	0xbff7a4a0	-1.9347115
5	0xbff84679	-1.9396507
6	0xbff660c2	-1.9248278
7	0xbff7fb52	-1.9373572
8	0xbff76126	-1.9326522
9	0xbff6f03b	-1.9292063
10	0xbff8c4a3	-1.9435009
11	0xbff6ae7c	-1.9271998
12	0xbff774fa	-1.9332573
13	0xbff80326	-1.9375961
14	0xbff71258	-1.9302473
15	0xbff6a9f5	-1.9270617
16	0xbf9e599e	-1.2371099
17	0x3f2c59b4	0.67324376
18	0x3f1bdc0a	0.6088263
19	0x3f2f871e	0.6856555
20	0x3f680984	0.9063952
21	0x3f1dfd9f	0.6171512
22	0xc0181923	-2.3765342
23	0xbf611376	-0.8792032
24	0xbd56f3e0	-0.05247867
25	0x3ea6fcc5	0.32614723
26	0x3f3bde43	0.7338602
27	0x3f4eab81	0.80730444
28	0x3ec46602	0.38359076
29	0xbf386a8d	-0.72037584
30	0xbf812dcc	-1.0092101
