model_checkpoint/421_muzero_representation_function.pt (torch, 12417 bytes, 4 tensors)

weight f4 [64, 4]
-0.29713896 0.12421371 1.9659648 -0.09116126 -0.0863796 0.19551894 -1.603518 0.20868933
-0.027017795 0.030830791 -0.08429391 0.012762628 -0.16726722 0.44589517 -1.8289081 0.39085042
-0.0024745744 0.023246083 -0.10109485 0.0029520288 0.5250165 1.7669312 1.8197377 1.3175101
-0.2142038 -0.2182369 1.6244445 0.7884584 0.01484576 0.014247434 -0.065807305 0.0046270927
0.0062345136 -0.00026395894 -0.06909612 -0.023853555 0.012192447 -0.03206857 0.036855735 -0.029255465
0.08871766 -0.21021883 -0.97063625 -0.0766531 0.011190057 -0.00421035 -0.11715576 -0.017182687
-0.0318387 0.070767 0.04202597 0.044141825 -0.5583789 0.7287808 -1.4900104 0.5979325
-0.036533624 0.020708645 -0.046912406 -0.0018273536 -0.19642735 0.09615464 -1.6583459 -0.4687906
-0.0056071607 -0.0015124315 -0.038713153 -0.040334765 0.01643851 -0.02855321 -0.0067570033 -0.026513008
0.24730305 0.012229148 -2.170582 -0.6602056 0.082533814 -0.1425345 2.1032345 -0.22852992
-0.023777978 0.007979141 -0.081062846 -0.018829174 0.009899531 -0.008478912 -0.047968876 -0.01869424
-0.03562355 0.078816235 0.21081655 0.0404105 -0.033464942 0.08504912 -1.0770181 0.106735215
-0.024058543 0.027195437 0.10094466 -0.0057032397 0.056159023 -0.040522587 -0.03805503 0.009063776
0.006612619 -0.016707148 -0.046896856 -0.025321059 0.035621893 -0.02471756 -0.14633274 -0.004167201
0.03831204 -0.022077505 0.08295969 0.020024814 0.393936 0.07435267 1.2152809 0.5933886
0.011099968 0.025922 -0.09159917 0.030551018 0.041200407 -0.037807304 -0.06330111 -0.011114094
-0.052401938 0.033269506 0.0010344181 -0.0005849516 0.004456722 0.0010801258 -0.09383735 -0.017485721
0.0012671375 -0.00013670139 -0.055485647 -0.024808055 0.0006228513 0.0011708293 -0.005373347 -0.0021488008
-0.0051205163 0.031064112 -0.1688253 0.04650337 0.032057818 -0.0058012735 -0.016191334 0.0059319576
0.030208595 -0.022338718 -0.14178567 -0.009710802 -0.018581547 -0.009097674 0.025585769 -0.032236185
0.00024832552 0.0034319034 -0.7280573 0.03784616 0.39645767 -0.775489 -1.6236866 -0.25233898
0.047517356 -2.154258 -0.61554295 -1.6041099 -0.03801683 0.029395113 0.087974206 0.011868197
-0.0030675088 -0.018919285 -0.067294635 -0.01971268 -0.020255813 0.0070442907 -0.06955307 -0.024883255
0.02315709 -0.020658035 -0.052362055 0.0022070215 -0.014304323 0.0034004445 -0.08540832 -0.023568923
-0.27657086 -0.06934614 -1.910296 -0.5155162 0.015179293 -0.011521559 -0.020838283 0.002090672
-0.0047633434 0.008022587 -0.0655618 -0.01851241 0.0060561164 0.00038635638 -0.025488121 0.0045555024
0.007575808 -0.03134335 0.6092909 -0.046102446 0.013641653 0.0100821415 -0.07044999 0.012453423
0.01912245 -0.01148118 -0.14829254 -0.018713133 0.03456178 -0.03913334 -0.030209884 -0.04327359
-0.29061446 0.06970135 1.4044399 0.3210337 -0.0052113445 0.0070331926 -0.05623842 -0.024553673
-0.03778619 0.042891055 0.04454249 0.043160126 -0.0050386083 0.0069527146 -0.11774694 -0.023339363
-1.0042719 0.8001152 -0.46685034 0.6654854 0.005656104 -0.13601787 2.3484535 -0.25685817
-0.003551972 0.0054940768 -0.054048594 -0.025994666 -0.79305273 0.83033806 -0.109857045 0.6027021
00000000: 9922 98be c263 fe3d bca4 fb3f c1b2 babd
00000010: cae7 b0bd 1e36 483e 1440 cdbf a8b2 553e
00000020: 6c54 ddbc db90 fc3c 49a2 acbd 571a 513c
00000030: 1948 2bbe 5f4c e43e a919 eabf 8c1d c83e
00000040: 782c 22bb 926e be3c d10a cfbd d376 413b
00000050: 7b67 063f cd2a e23f 2aed e83f 2ca4 a83f
00000060: 3e58 5bbe 7e79 5fbe cced cf3f 69d8 493f
00000070: a13b 733c 126e 693c fbc5 86bd de9e 973b
00000080: e44a cc3b f863 8ab9 4482 8dbd 8868 c3bc
00000090: d4c2 473c 555a 03bd 0af6 163d 28a9 efbc
000000a0: 9bb1 b53d 9b43 57be 9e7b 78bf 4dfc 9cbd
000000b0: 8056 373c faf6 89bb 5cef efbd b5c2 8cbc
000000c0: 4c69 02bd 4aee 903d 6c23 2c3d 0fce 343d
000000d0: ebf1 0ebf 6191 3a3f a9b8 bebf 1b12 193f
000000e0: 48a4 15bd 2da5 a93c 3927 40bd d083 efba
000000f0: 4024 49be b9ec c43d ae44 d4bf 5205 f0be
00000100: 46bc b7bb c83c c6ba af91 1ebd 1136 25bd
00000110: 0eaa 863c 6ce8 e9bc da69 ddbb cf31 d9bc
00000120: 033d 7d3e c45c 483c d1ea 0ac0 3c03 29bf
00000130: 7d07 a93d 90f4 11be 659b 0640 bf03 6abe
00000140: 09ca c2bc f1ba 023c 4704 a6bd a43f 9abc
00000150: a431 223c 22eb 0abc 037b 44bd aa24 99bc
00000160: 00ea 11bd 686a a13d 4be0 573e 7b85 253d
00000170: 8912 09bd 3c2e ae3d bbdb 89bf fe97 da3d
00000180: 6c16 c5bc f7c8 de3c 13bc ce3d 3ee2 babb
00000190: 0107 663d 03fb 25bd 97df 1bbd 3b80 143c
000001a0: abae d83b 6edd 88bc eb16 40bd 1c6e cfbc
000001b0: 43e8 113d 7b7c cabc 40d8 15be 048d 88bb
000001c0: 16ed 1c3d e2db b4bc c5e6 a93d 140b a43c
000001d0: fbb1 c93e 3646 983d 538e 9b3f 51e8 173f
000001e0: a4dc 353c 605a d43c 5898 bbbd 2146 fa3c
000001f0: c2c1 283d d5db 1abd 03a4 81bd e417 36bc
00000200: 6aa3 56bd 9b45 083d 5095 873a 7057 19ba
00000210: b209 923b 0293 8d3a cc2d c0bd 373e 8fbc
00000220: 1416 a63a 8057 0fb9 eb44 63bd 433a cbbc
00000230: d846 233a 8376 993a e712 b0bb e5d2 0cbb
00000240: 01ca a7bb 2a7a fe3c 8ae0 2cbe 517a 3e3d
00000250: 0f4f 033d 9c18 bebb b0a3 84bc de60 c23b
00000260: 0478 f73c b0ff b6bc 4330 11be 0e1a 1fbc
00000270: 5438 98bc 690e 15bc 3f99 d13c 170a 04bd
00000280: b031 8239 c9e9 603b f761 3abf 9304 1b3d
00000290: 80fc ca3e 7286 46bf f6d4 cfbf 9332 81be
000002a0: 8fa1 423d 5ddf 09c0 3994 1dbf 7953 cdbf
000002b0: 89b7 1bbd 05ce f03c d22b b43d d372 423c
000002c0: 4208 49bb 9efc 9abc c5d1 89bd 7c7c a1bc
000002d0: 85ef a5bc cbd3 e63b d771 8ebd f8d7 cbbc
000002e0: f0b3 bd3c 0a3b a9bc 9879 56bd ada3 103b
000002f0: ae5c 6abc fed9 5e3b 8fea aebd 9d13 c1bc
00000300: b29a 8dbe 5905 8ebd 9484 f4bf dff8 03bf
00000310: 92b2 783c ecc4 3cbc 0cb5 aabc a803 093b
00000320: d215 9cbb 2b71 033c 4445 86bd 56a7 97bc
00000330: 6372 c63b e08f ca39 77cc d0bc 5346 953b
00000340: 7c3e f83b e261 00bd 7dfa 1b3f ebd5 3cbd
00000350: 3d81 5f3c 912f 253c 1648 90bd 7109 4c3c
00000360: afa6 9c3c 8f1b 3cbc 00da 17be 494c 99bc
00000370: a790 0d3d 484a 20bd b87a f7bc a63f 31bd
00000380: 6bcb 94be 95bf 8e3d b0c4 b33f 875e a43e
00000390: edc3 aabb b276 e63b 425a 66bd c924 c9bc
000003a0: b1c5 1abd 88ae 2f3d 3072 363d acc8 303d
000003b0: e91a a5bb 99d3 e33b 4f25 f1bd 3132 bfbc
000003c0: fb8b 80bf 5ad4 4c3f 0207 efbe 405d 2a3f
000003d0: d756 b93b 4548 0bbe 104d 1640 ea82 83be
000003e0: 34c8 68bb a807 b43b 0f62 5dbd c4f2 d4bc
000003f0: 8105 4bbf 0991 543f bbfc e0bd af4a 1a3f

bias f4 [64]
0.07633199 0.0028120067 -0.023590619 0.0066640973 0.0014903942 -0.8058867 -0.5351381 -0.028862506
-0.016095225 -0.004600144 -0.022881296 -0.012220668 -0.040823206 0.010513104 -0.012416206 -0.4418116
-0.022721462 0.005865398 -0.6111857 0.0023204326 -0.0049098935 0.007264355 -0.0068549854 0.0028151814
-0.028826172 0.013055552 0.009988316 -0.004836653 -0.0034911707 -0.5690633 -0.026624463 0.003242571
-0.011123765 -0.01576286 -0.020521486 -9.054669e-05 0.0015228847 0.0056661908 -0.002792558 0.0011216819
0.003316329 -0.2013702 -0.13614924 -0.016044859 0.008033683 -0.0010024842 0.008530464 0.00030552642
-0.359742 -0.0021576004 -0.017543135 0.0027419876 -0.011132084 -0.024524499 -0.007973615 -0.013939302
-0.36127555 -0.022083115 -0.019290715 -0.00059977407 -0.013738426 0.03319847 -0.021595895 -0.013846204
00000000: f253 9c3d a549 383b 1d41 c1bc 805e da3b
00000010: 5559 c33a 974e 4ebf cffe 08bf 1071 ecbc
00000020: 22da 83bc cebc 96bb 8e71 bbbc 3239 48bc
00000030: 3c36 27bd 273f 2c3c 586d 4bbc 2135 e2be
00000040: 5c22 babc 8632 c03b ab76 1cbf 6612 183b
00000050: 2ce3 a0bb d409 ee3b c99f e0bb e87e 383b
00000060: dd24 ecbc f4e6 553c 09a6 233c c97c 9ebb
00000070: 20cc 64bb 22ae 11bf 8c1b dabc 5081 543b
00000080: 7440 36bc 1d21 81bc ad1c a8bc e2e3 bdb8
00000090: 889b c73a 74ab b93b 5903 37bb 6605 933a
000000a0: c556 593b fd33 4ebe b56a 0bbe 8270 83bc
000000b0: b59f 033c ca65 83ba 5cc3 0b3c 102f a039
000000c0: 1a30 b8be 8766 0dbb 9fb6 8fbc ebb2 333b
000000d0: 5863 36bc 9ae7 c8bc c4a3 02bc ac61 64bc
000000e0: 1cf9 b8be a6e7 b4bc 9007 9ebc 283a 1dba
000000f0: 2317 61bc 1efb 073d e0e9 b0bc 30db 62bc

weight f4 [31, 64]
-0.22237903 -0.04882838 0.030852402 -0.2003866 -0.028232925 -1.1266608 0.055399854 0.03606739
-0.0127877025 -0.030281877 0.035420597 0.0028489386 -0.035439156 -0.5734373 0.027414253 0.20523044
-0.0050107716 -0.015371151 0.09779429 -0.000806935 0.01395671 -0.025536235 -0.040624455 -0.006021472
9.783122e-05 0.00061158685 -0.020487918 0.041286215 0.026388295 0.48673654 0.012418972 0.007349999
0.008298748 -0.0016192166 -0.0033091074 0.0030997668 0.01732158 -0.010675361 0.029338691 -0.027502155
0.023497071 0.012731147 -1.2957956 -0.0054731024 0.0016016909 -0.0063595413 0.006422666 -0.00838211
0.035605878 0.013033921 -0.006783016 -0.003955953 -0.014896531 0.017212508 0.029119102 0.06392973
-0.09098024 -0.010557988 -0.029009491 -0.019422337 -0.65419525 -0.04157453 -0.009973926 -0.5953572
0.052403916 -0.031176746 0.023808582 -0.0157627 -0.044322122 -0.16224892 0.02653659 -0.003641919
-0.045924544 -0.0057669706 -0.02406202 -0.047426507 0.03743797 0.04712708 -0.026503693 0.38943422
0.000307829 -0.033346917 0.72416294 0.014947072 -0.03282669 -0.018956926 0.007864814 -0.054827165
0.03658129 -0.07008338 -0.022668494 -0.060914658 0.012020313 -0.038698997 -0.011833197 -0.058001574
0.0027321402 -0.016522938 0.00253755 -0.008663129 -0.042233188 -0.012869709 -0.0798407 0.01868344
-0.04606043 -0.07581511 -0.426868 0.052226324 -0.022111338 -0.03225088 -0.010910033 -0.04147825
0.33792344 0.0020585663 0.0025157123 -0.0130616175 0.05762865 -0.0034062811 -0.10781916 -0.026633386
0.035180725 0.0031313587 0.0546866 -0.062897965 0.09846488 0.008484715 -0.003618367 0.058514208
-0.9423418 0.557359 0.038372036 0.57844114 0.04978624 -0.7646399 -0.7995672 -0.019698286
0.08177952 0.059447523 0.43071282 0.07014569 0.009553203 0.38363704 0.042186 0.22768235
0.07466918 0.03353927 0.21529229 -0.90741456 0.024320323 -0.0058041145 -0.06489714 0.3628701
0.02708376 -0.020014511 0.01366855 0.046511915 -0.02464699 -0.4815062 -0.030870577 0.02952873
0.044477083 0.06768336 0.06800979 0.008611228 -0.013492901 -0.005399487 0.05054593 0.044707302
0.25374654 0.6996621 -0.35452336 0.010846167 0.050028145 0.02340587 -0.040592898 0.024919035
0.2795996 -0.013307499 0.060595065 -0.0008095878 -0.1900297 -0.028742263 0.0670798 0.08137601
-0.58395565 0.07395661 -0.019251147 0.045311525 -0.060882855 -1.0554869 0.075681806 -0.16386199
0.5850048 -0.20085903 -0.005432453 -0.22316751 0.03300497 0.8484023 0.36240554 0.02946895
0.07598743 0.06094111 -0.24171308 0.07633384 -0.016362902 -0.17649156 0.0009964164 -0.18902476
0.05684843 0.03641095 -0.24757811 0.44912428 0.02505878 0.022660065 0.031029748 -0.101993896
-0.023095695 0.037411828 0.02778769 0.079117864 -0.018270738 0.31529003 0.031216415 0.06379049
0.0012349049 0.06301774 0.055088926 0.004498973 0.023465523 0.02275758 0.077195846 0.007854914
-0.07314322 -0.62501246 0.250041 -0.041602634 -0.014602606 0.02417304 -0.004489607 0.031869356
-0.0820897 0.0040571066 0.044279724 0.010393355 0.039090175 0.0052951947 0.08886436 0.09147376
0.3232191 0.050508443 -0.06716152 0.05397346 0.05625241 0.57400966 0.056985997 0.1027483
00000000: 54b7 63be 4400 48bd 2dbe fc3c 2532 4dbe
00000010: bc48 e7bc 6c36 90bf f5ea 623d 66bb 133d
00000020: 8383 51bc b311 f8bc 3015 113d 42b5 3a3b
00000030: a628 11bd c9cc 12bf db93 e03c ee27 523e
00000040: 6631 a4bb 48d7 7bbc 5f48 c83d 7e88 53ba
00000050: afaa 643c 5e31 d1bc d465 26bd c54f c5bb
00000060: bc2a cd38 e652 203a 47d6 a7bc bc1b 293d
00000070: 442c d83c 8835 f93e f278 4b3c 43d8 f03b
00000080: 79f7 073c e53b d4ba 9cdd 58bb 7525 4b3b
00000090: fce5 8d3c b6e7 2ebc b257 f03c 334c e1bc
000000a0: ee7c c03c 4d96 503c a1dc a5bf b657 b3bb
000000b0: d4ef d13a b363 d0bb 3a75 d23b 1e55 09bc
000000c0: 78d7 113d 3a8c 553c 1044 debb f0a0 81bb
000000d0: 9410 74bc 3f01 8d3c 2f8b ee3c 97ed 823d
000000e0: d953 babd 69fb 2cbc 50a5 edbc 981b 9fbc
000000f0: 5779 27bf 0e4a 2abd ad69 23bc 5469 18bf
00000100: 7da5 563d 6066 ffbc 370a c33c c720 81bc
00000110: 1d8b 35bd 9524 26be 4363 d93c 43ad 6ebb
00000120: 601b 3cbd dbf8 bcbb b71d c5bc 4c42 42bd
00000130: 8f58 193d 5308 413d 461e d9bc ec63 c73e
00000140: 1c64 a139 c796 08bd be62 393f 90e4 743c
00000150: 4775 06bd 8e4b 9bbc 6cdb 003c 7392 60bd
00000160: 43d6 153d e087 8fbd 47b3 b9bc a681 79bd
00000170: d9f0 443c d782 1ebd 07e0 41bc 0f93 6dbd
00000180: b50d 333b 1d5b 87bc 064d 263b ccef 0dbc
00000190: b5fc 2cbd 79db 52bc 8583 a3bd 030e 993c
000001a0: dda9 3cbd f444 9bbd 718e dabe 45eb 553d
000001b0: d622 b5bc 8019 04bd ffbf 32bc 19e5 29bd
000001c0: 4d04 ad3e 03e9 063b a6de 243b 6500 56bc
000001d0: 050c 6c3d ea3b 5fbb 4bd0 dcbd 422e dabc
000001e0: aa19 103d 7b37 4d3b 0eff 5f3d a6d0 80bd
000001f0: f4a7 c93d 7903 0b3c 2022 6dbb 98ac 6f3d
00000200: 503d 71bf 14af 0e3f ff2b 1d3d b814 143f
00000210: a8ec 4b3d 71bf 43bf 70b0 4cbf 4d5e a1bc
00000220: 057c a73d 3f7f 733d 6486 dc3e 8ba8 8f3d
00000230: 0a85 1c3c 136c c43e 3acb 2c3d 9025 693e
00000240: 28ec 983d 7960 093d 9575 5c3e 524c 68bf
00000250: 6a3b c73c 7130 bebb cbe8 84bd 1cca b93e
00000260: c3de dd3c 79f5 a3bc 0ef2 5f3c 4783 3e3d
00000270: 7ce8 c9bc fb87 f6be 4be4 fcbc 3ce6 f13c
00000280: 9a2d 363d 939d 8a3d b748 8b3d 1c16 0d3c
00000290: 5411 5dbc 2eee b0bb 4009 4f3d 011f 373d
000002a0: 11eb 813e 0e1d 333f 1684 b5be 1fb4 313c
000002b0: 50ea 4c3d abbd bf3c bd44 26bd 0123 cc3c
000002c0: ae27 8f3e b207 5abc 8832 783d 843a 54ba
000002d0: 2597 42be e574 ebbc 2261 893d 77a8 a63d
000002e0: 1e7e 15bf 9076 973d 95b4 9dbc 9498 393d
000002f0: 4d60 79bd 321a 87bf 10ff 9a3d 70cb 27be
00000300: e0c2 153f fdad 4dbe b802 b2bb 0686 64be
00000310: 3830 073d e530 593f 388d b93e de68 f13c
00000320: 4c9f 9b3d 639d 793d a283 77be eb54 9c3d
00000330: 7e0b 86bc 34ba 34be 309a 823a b58f 41be
00000340: e6d9 683d a623 153d 1e85 7dbe 9ef3 e53e
00000350: 1248 cd3c 9aa1 b93c 1932 fe3c 2de2 d0bd
00000360: 2f33 bdbc 253d 193d 02a3 e33c 8c08 a23d
00000370: 84ac 95bc b26d a13e 91b9 ff3c 97a4 823d
00000380: 88dc a13a 720f 813d eda4 613d 1f6c 933b
00000390: c53a c03c 1b6e ba3c db18 9e3d e6b1 003c
000003a0: 1dcc 95bd d100 20bf 6005 803e 8667 2abd
000003b0: c53f 6fbc 8a06 c63c 8e1d 93bb 7189 023d
000003c0: a51e a8bd 7af1 843b a85e 353d e448 2a3c
000003d0: 051d 203d 5083 ad3b 84fe b53d 9856 bb3d
000003e0: f97c a53e f1e1 4e3d fb8b 89bd 4613 5d3d
000003f0: ed68 663d 4cf2 123f 266a 693d b36d d23d

bias f4 [31]
-0.11169764 -0.12172809 -0.17038429 -0.10439521 -0.3532078 -0.113946065 -0.15159921 -0.016063727
2.133269 -0.33146816 -0.14148651 0.063232355 -0.43392277 -0.13059323 -0.2861203 -0.34205133
-0.1574625 -0.30218166 0.0980172 -0.4048037 -0.26827282 -0.14149857 1.8622086 -0.13603297
-0.4209782 -0.18360126 -0.19869712 -0.28955847 -0.4047751 -0.405954 -0.14081705
00000000: bbc1 e4bd 944c f9bd 3879 2ebe 28cd d5bd
00000010: a7d7 b4be 8e5c e9bd d33c 1bbe 1498 83bc
00000020: 7b87 0840 32b6 a9be d7e1 10be f77f 813d
00000030: 202b debe 3bba 05be 5c7e 92be 5a21 afbe
00000040: d93d 21be 8eb7 9abe 3ebd c83d 6e42 cfbe
00000050: 0e5b 89be 00e5 10be da5c ee3f 3a4c 0bbe
00000060: 748a d7be f801 3cbe 4277 4bbe 0241 94be
00000070: af3e cfbe 34d9 cfbe 5832 10be
