model_checkpoint/421_muzero_representation_function.pt (torch, 12417 bytes, 4 tensors)

weight f4 [64, 4]
0.0071286913 -0.011266608 -0.040082954 0.002605806 0.15201591 -0.14429632 1.1178269 -0.19979967
0.003385976 0.0079868 -0.026564976 0.005259356 -0.06287154 0.2158686 1.3989137 0.5427671
0.0025260784 -0.002944817 -0.044015847 0.0018497412 0.0110079795 0.0551089 -0.052873917 0.033204913
-0.7421939 -0.45789638 -0.617255 0.05555665 0.00019124872 -0.0065748123 0.17643268 -0.0342298
-0.027933225 -0.011311434 0.15992308 -0.03072427 0.13367729 -0.13615723 0.95543754 -0.17476757
-0.000792139 0.03902889 0.05098593 -0.028045982 0.0017947512 0.012173113 0.13247204 -0.0315563
-0.40312517 0.20091224 0.98281187 0.35765398 0.0025627727 0.021205306 -0.043057222 0.0074556796
0.008989942 0.035392106 -0.09991832 0.03385801 -0.0117919 -0.038400833 0.05770341 -0.0246218
-0.07040758 0.114760555 -0.7742444 0.14098592 0.36211962 -0.2893595 1.2937356 -0.30853334
0.01751361 0.037503354 -0.09379761 0.038893975 -0.014333739 -0.007388953 0.16704395 -0.031821705
0.0060111596 0.0030570996 -0.021862002 0.0014244718 -0.37722746 0.41119924 0.075181216 0.10248519
-0.003882297 -0.037798963 -0.011097178 -0.027701888 -0.002087966 -0.0052895145 0.038805038 -0.004707538
-0.40943718 0.15622951 1.8541782 0.46233884 0.0005304781 0.034315657 0.05246125 0.005008109
0.20380013 -0.1738197 1.5542947 -0.2797911 0.31023362 -0.009986609 -2.6779451 -0.65095854
0.0035428759 0.005862032 -0.06512214 0.013355111 0.0044359947 -0.004672464 0.0060851416 -0.007382434
0.014744911 0.035048474 0.059971485 0.03710296 -0.011814908 0.39890155 -0.028510252 -0.03817604
0.0057890653 0.007709606 -0.017127536 0.005013069 -0.07602583 0.13108294 -0.85292995 0.16267717
-0.036027856 0.06146071 -0.19404215 0.06643301 -0.009683444 -0.04517913 0.028297085 -0.027089452
0.0027666306 0.024207313 0.1300491 -0.02071853 0.268519 0.20194373 1.5872859 0.93665594
-0.07282993 0.059625138 -0.058268417 0.07567182 -0.0069586746 0.04002247 0.032191616 -0.01705195
0.3744152 0.04127756 1.6575347 -0.31612888 -0.0030461964 0.0073718196 -0.05912704 0.0047774776
0.01993868 -0.07629001 -0.06212453 -0.045119893 -0.031655554 -0.012692615 0.14295065 -0.032608416
0.1275609 -0.13324448 1.7718338 -0.32531974 0.011315475 -0.022339782 0.1402266 -0.026838934
-0.018821195 -0.03801643 -0.06452107 -0.017698986 0.026550107 0.045258608 -0.04830488 0.03935879
0.3837102 -0.39074808 0.75455457 -0.2601388 0.028040804 0.021606617 -0.11802328 0.018971872
-0.21668819 -0.37546116 -2.169365 -0.54174745 -0.120021015 -0.2918608 -2.5588799 -0.5730363
-0.4276127 0.14250189 2.3183858 0.5818674 0.008104847 -0.019890944 -0.029947849 -1.0564923e-05
0.006415459 0.02585987 -0.023537219 0.014725007 0.15344927 0.13358411 -2.53925 0.4792918
-0.011844295 -0.042127945 0.039416 -0.029919162 -0.0023170942 -0.016057957 0.020839036 -0.007507464
0.27792606 -0.133283 1.5884838 -0.24954651 0.39023724 -0.08417182 -1.8168373 -0.44141015
0.08548204 -0.09996813 0.5860868 -0.11241383 0.20956147 0.18758 1.1989826 0.58348393
-0.0063487864 -0.59054375 0.7071156 -0.67866266 0.000102783764 0.01805483 0.092967734 -0.017352128
00000000: cc97 e93b 9497 38bc 062e 24bd 2cc6 2a3b
00000010: 0faa 1b3e 6ac2 13be f414 8f3f 4998 4cbe
00000020: 40e7 5d3b 11db 023c cb9e d9bc ad56 ac3b
00000030: cbc2 80bd a90c 5d3e 9b0f b33f c9f2 0a3f
00000040: 908c 253b d5fd 40bb f649 34bd 0473 f23a
00000050: d05a 343c dfb9 613d 5292 58bd e001 083d
00000060: 6b00 3ebf 6571 eabe 6c04 1ebf 5f8f 633d
00000070: f089 4839 8671 d7bb c5aa 343e 8c34 0cbd
00000080: 38d4 e4bc 9853 39bc e0c2 233e 77b1 fbbc
00000090: b3e2 083e cd6c 0bbe 8e97 743f 45f6 32be
000000a0: 8ca7 4fba c2dc 1f3d 9fd6 503d b0c0 e5bc
000000b0: db3d eb3a bd71 473c c0a6 073e 2e41 01bd
000000c0: 6c66 cebe f0bb 4d3e 8f99 7b3f 6c1e b73e
000000d0: 31f4 273b c0b6 ad3c c55c 30bd c64e f43b
000000e0: 8d4a 133c 50f7 103d faa1 ccbd b2ae 0a3d
000000f0: d032 41bc 314a 1dbd 695a 6c3d a8b3 c9bc
00000100: d931 90bd 9507 eb3d e234 46bf 9d5e 103e
00000110: be67 b93e ee26 94be 2199 a53f 15f8 9dbe
00000120: b478 8f3c 1e9d 193d f618 c0bd 4a4f 1f3d
00000130: 0fd8 6abc 081f f2bb 920d 2b3e 7a57 02bd
00000140: 43f9 c43b 9f59 483b f117 b3bc 58b5 ba3a
00000150: f523 c1be b588 d23e 9cf8 993d c1e3 d13d
00000160: 236e 7ebb 16d3 1abd f0d0 35bc 12ef e2bc
00000170: 42d6 08bb aa53 adbb 08f2 1e3d b141 9abb
00000180: c0a1 d1be a1fa 1f3e b655 ed3f adb7 ec3e
00000190: c80f 0b3a 938e 0c3d 9ce1 563d 101b a43b
000001a0: fbb0 503e cbfd 31be 21f3 c63f c740 8fbe
000001b0: f1d6 9e3e e09e 23bc 7463 2bc0 38a5 26bf
000001c0: 982f 683b 4a16 c03b c25e 85bd 65cf 5a3c
000001d0: d25b 913b 781b 99bb de65 c73b 58e8 f1bb
000001e0: a494 713c fd8e 0f3d a9a4 753d 46f9 173d
000001f0: 5193 41bc d33c cc3e 558e e9bc 7b5e 1cbd
00000200: 33b2 bd3b dda0 fc3b 0c4f 8cbc ac44 a43b
00000210: 6eb3 9bbd 9b3a 063e 9e59 5abf d894 263e
00000220: f291 13bd 3abe 7b3d fcb2 46be 080e 883d
00000230: 4fa7 1ebc c00d 39bd 4acf e73c b3ea ddbc
00000240: 5c50 353b 6a4e c63c 972b 053e e8b9 a9bc
00000250: 537b 893e 56ca 4e3e 2f2c cb3f afc8 6f3f
00000260: dc27 95bd 7d39 743d ddaa 6ebd d4f9 9a3d
00000270: 9805 e4bb 9aee 233d 5bdb 033d 88b0 8bbc
00000280: 59b3 bf3e a912 293d 192a d43f a5db a1be
00000290: b2a2 47bb 4e8f f13b 322f 72bd 638c 9c3b
000002a0: 7156 a33c f03d 9cbd 4b76 7ebd a3cf 38bd
000002b0: 41a9 01bd b0f4 4fbc a861 123e 6790 05bd
000002c0: 539f 023e 3e71 08be 73cb e23f 4f90 a6be
000002d0: 8b64 393c eb01 b7bc 9097 0f3e 53dd dbbc
000002e0: e82e 9abc 1eb7 1bbd 9f23 84bd 77fd 90bc
000002f0: 9c7f d93c 1761 393d 56db 45bd af36 213d
00000300: aa75 c43e 2210 c8be 7d2a 413f ea30 85be
00000310: d4b5 e53c 5c00 b13c 30b6 f1bd e66a 9b3c
00000320: 82e3 5dbe 723c c0be e0d6 0ac0 f6af 0abf
00000330: 94cd f5bd c76e 95be b0c4 23c0 82b2 12bf
00000340: 0df0 dabe 04ec 113e 6f60 1440 43f5 143f
00000350: 31ca 043c 55f2 a2bc 3155 f5bc 0040 31b7
00000360: c538 d23b 14d8 d33c 20d1 c0bc 2841 713c
00000370: ce21 1d3e 46ca 083e 1283 22c0 bc65 f53e
00000380: 930e 42bc 5a8e 2cbd ac72 213d 0819 f5bc
00000390: 64da 17bb fa8b 83bc a0b6 aa3c 2c01 f6bb
000003a0: 534c 8e3e 577b 08be 7053 cb3f 1f89 7fbe
000003b0: 2dcd c73e 4662 acbd 208e e8bf 8300 e2be
000003c0: 3511 af3d 17bc ccbd c909 163f 3939 e6bd
000003d0: 4897 563e f914 403e 4378 993f 345f 153f
000003e0: 7b09 d0bb e02d 17bf 8705 353f d6bc 2dbf
000003f0: 9d8d d738 b9e7 933c de65 be3d 0d26 8ebc

bias f4 [64]
-0.005198272 0.046055753 0.0025209058 -0.4505012 0.005048029 -0.037274882 -0.48902646 0.0155256055
0.029472182 0.034336366 0.010278959 0.016085133 -0.2627252 -0.004016473 -0.03394097 0.024419816
-0.023048127 0.038671874 -0.038237482 0.022377778 -3.0144933e-05 -0.07085385 0.006259848 0.0002772233
-0.5579754 -0.00058267603 0.0795582 -0.5456449 -0.010726147 0.0033582128 -0.0070154024 -0.042491317
0.0040652063 -0.023969403 -0.005849152 0.020686693 0.010978596 -0.21068317 -0.014275753 0.012154976
0.12812364 0.00041576897 -0.0031649221 0.032240506 0.105581515 0.004515873 0.00078517187 -0.046857957
0.014379134 -0.02933957 -0.67441195 -0.653585 -0.67877465 -0.003223173 -0.015445503 0.21096312
0.028592478 0.0065584467 0.11882968 -0.40506333 0.019189991 -0.35643047 -0.11088302 -0.0050303917
00000000: 4456 aabb f5a4 3c3d c835 253b 18a8 e6be
00000010: f069 a53b 8cad 18bd ad61 fabe 1c5f 7e3c
00000020: a56f f13c 4aa4 0c3d 1469 283c f8c4 833c
00000030: eb83 86be 9e9c 83bb b005 0bbd 110c c83c
00000040: 6dcf bcbc 6666 1e3d e89e 1cbd 9a51 b73c
00000050: c0df fcb7 d31b 91bd 691f cd3b 4858 9139
00000060: 7ad7 0ebf babe 18ba 69ef a23d 62af 0bbf
00000070: b9bc 2fbc 7615 5c3b 76e1 e5bb 600b 2ebd
00000080: 6c35 853b 7b5b c4bc 3eaa bfbb 2477 a93c
00000090: 92df 333c 54bd 57be d9e4 69bc aa25 473c
000000a0: d832 033e 91fb d939 956a 4fbb 9f0e 043d
000000b0: 1f3b d83d e3f9 933b fed3 4d3a 21ee 3fbd
000000c0: 7696 6b3c 8a59 f0bc 43a6 2cbf 5951 27bf
000000d0: 2dc4 2dbf df3b 53bb 230f 7dbc b706 583e
000000e0: c63a ea3c 3de8 d63b fa5c f33d 7664 cfbe
000000f0: 5434 9d3c 0e7e b6be a316 e3bd fcd5 a4bb

weight f4 [31, 64]
-0.030525686 0.037017725 0.0006182713 -0.0663581 -0.01360015 -0.009194584 0.20354807 0.027802164
0.074661314 0.03284641 -0.01804646 0.039484985 -0.0892069 0.01269374 0.0022221697 0.010103305
-0.020075459 0.09420122 -0.0153885875 0.0338904 -0.016638992 0.02668383 -0.061574798 0.004153726
-0.004413344 0.042771474 0.0635968 0.47262222 -0.022628387 -0.04757667 0.10625996 0.11204874
0.0037382932 -0.025587926 -0.017937291 -0.006600267 0.03974237 -0.02930543 -0.043120775 -0.0038277996
0.21679254 0.0061945952 0.016349515 0.054420438 0.077558726 -0.016049204 -0.050581235 -0.017214604
0.057918154 -0.044689264 0.37721348 0.4064172 0.04906136 -0.025059653 -0.004455698 -0.1364292
-0.007030165 0.012742713 0.058814306 0.3371126 0.019400582 -0.03857159 0.20720387 0.023843952
-0.0048735947 -0.0711292 0.049875032 0.16685443 0.036235105 0.07200761 -0.773182 -0.06682683
-0.05023599 -0.07096674 -0.04000817 -0.049143463 -0.10584941 0.070462875 0.12285969 -0.0134497415
0.04791258 -0.1670876 0.083881065 -0.07044332 0.025069475 -0.32249987 -0.02537189 -0.02404212
-0.04494687 0.066340804 -0.06856615 0.02864989 0.014062215 -0.042538527 0.08257314 -0.0013304885
0.050483447 0.04773184 0.058864705 -0.062007383 -0.010420019 0.17762475 0.07155077 -0.017464647
-0.014361361 0.06476391 -0.045947246 -0.042742282 -0.046853248 -0.0087055825 0.004638865 0.0441323
-0.23568408 0.027586173 -0.3944778 -0.20985363 -0.10281787 -0.024026223 0.026304312 -0.03781718
-0.051270656 -0.038401842 -0.04472324 -0.059818238 -0.05552503 0.18161511 -0.43481666 -0.037583783
-0.0015792926 0.029962506 -0.00756392 0.078767754 -0.0058824196 -0.028316718 -0.09918007 -0.0207045
0.0034895597 0.025283039 -0.018130705 0.019434808 -0.1060217 -0.0043450184 -0.033149887 0.018565169
0.009501129 0.12089568 -0.0266322 -0.012586319 0.008145581 0.026670549 0.01482067 -0.0042368243
-0.008468041 -0.00085662364 0.046325378 0.38767192 -0.014091637 -0.021352328 0.029194437 0.2255947
-0.006733043 0.013634157 0.0010143162 0.044633947 -0.015031337 0.15998596 -0.030963087 -0.014685999
0.25041327 0.0022461673 -0.011518598 -0.00018811187 0.009393533 0.013149842 0.020030906 -0.029536337
0.077718556 0.0027816896 0.16339108 0.21047875 0.02446581 0.008767801 -0.01004204 0.0027695165
0.021553466 0.019417105 0.1104906 0.26793066 0.020093111 0.15970474 -0.078020416 0.019336363
0.010864826 0.096433215 0.044856522 -0.0185237 0.029814653 0.006354074 0.05183799 -0.03880733
-0.0043441625 0.087573744 -0.016439104 -0.044007502 -0.08516669 0.047329493 0.046550658 -0.0018310378
-0.07038586 0.16534962 -0.0015529164 -0.03554654 -0.011672984 -0.047841843 0.0018704305 0.009286738
0.047570094 0.012039251 0.12894207 0.40483543 0.02310897 -0.035071168 0.040493246 -0.009217304
0.041778702 -0.080595806 -0.023623522 0.0015100793 -0.01570014 0.03653315 -0.024303894 -0.0011553615
0.10171109 0.05917359 0.013013048 0.015109689 0.14231656 0.010733372 0.020857828 -0.043955326
0.14110592 -0.03707667 0.43608874 0.45253432 0.116150916 0.01749512 -0.010520978 -0.097955264
-0.0009657831 -0.002248822 0.103877105 0.2457599 0.053183902 0.024532076 0.21303555 -0.056133986
00000000: 0111 fabc e69f 173d 7c13 223a c1e6 87bd
00000010: 2ad3 5ebc e1a4 16bc e86e 503e 5dc1 e33c
00000020: 08e8 983d f589 063d 2bd6 93bc 02bb 213d
00000030: 1bb2 b6bd 68f9 4f3c d2a1 113b 5588 253c
00000040: 4a75 a4bc 92ec c03d 6a20 7cbc a9d0 0a3d
00000050: 7f4e 88bc 0c98 da3c db35 7cbd fb1b 883b
00000060: d09d 90bb 2431 2f3d 0a3f 823d 8afb f13e
00000070: 2b5f b9bc c1df 42bd d29e d93d cf79 e53d
00000080: 27fe 743b c59d d1bc 3af1 92bc 0d47 d8bb
00000090: e5c8 223d f111 f0bc 699f 30bd d2db 7abb
000000a0: ddfe 5d3e 08fc ca3b 6bef 853c f7e7 5e3d
000000b0: 1cd7 9e3d 9f79 83bc 452e 4fbd a405 8dbc
000000c0: 963b 6d3d 170c 37bd 2022 c13e ea15 d03e
000000d0: 91f4 483d e749 cdbc 1b01 92bb 19b4 0bbe
000000e0: 4c5d e6bb d0c6 503c 45e7 703d 069a ac3e
000000f0: f8ed 9e3c 3efd 1dbd 402d 543e 6454 c33c
00000100: adb2 9fbb 30ac 91bd c349 4c3d e3db 2a3e
00000110: 436b 143d ba78 933d 41ef 45bf 81dc 88bd
00000120: 41c4 4dbd 0357 91bd 9bdf 23bd a84a 49bd
00000130: 93c7 d8bd d74e 903d dc9d fb3d 4e5c 5cbc
00000140: fb3f 443d 0319 2bbe d6c9 ab3d 9644 90bd
00000150: 805e cd3c b41e a5be b6d8 cfbc fbf3 c4bc
00000160: 361a 38bd b0dd 873d 696c 8cbd 2db3 ea3c
00000170: 3465 663c e13c 2ebd 1b1c a93d c963 aeba
00000180: bbc7 4e3d 7682 433d 1e1c 713d 74fb 7dbd
00000190: bab8 2abc 43e3 353e 3689 923d 0512 8fbc
000001a0: ea4b 6bbc f1a2 843d 2e33 3cbd 8812 2fbd
000001b0: 31e9 3fbd dca1 0ebc 9f01 983b 12c4 343d
000001c0: 2b57 71be 66fc e13c fff8 c9be dfe3 56be
000001d0: 2d92 d2bd a4d2 c4bc 247c d73c 30e6 1abd
000001e0: 2e01 52bd 404b 1dbd b72f 37bd f803 75bd
000001f0: 376e 63bd 50f9 393e 4aa0 debe 74f1 19bd
00000200: 4400 cfba ee73 f53c c3da f7bb fd50 a13d
00000210: 50c1 c0bb 76f8 e7bc ec1e cbbd 7c9c a9bc
00000220: 19b1 643b 601e cf3c d886 94bc bf35 9f3c
00000230: e821 d9bd a860 8ebb 2dc8 07bd fb15 983c
00000240: a0aa 1b3c 2798 f73d c62b dabc d936 4ebc
00000250: 0b75 053c 327c da3c 65d2 723c 0fd5 8abb
00000260: 8abd 0abc 0a8f 60ba aebf 3d3d ef7c c63e
00000270: 9ce0 66bc 14eb aebc 2c29 ef3c 4c02 673e
00000280: dca0 dcbb cd61 5f3c cef2 843a 16d2 363d
00000290: ff45 76bc 5cd3 233e 4da6 fdbc 8b9d 70bc
000002a0: 2b36 803e 6f34 133b 80b8 3cbc e53f 45b9
000002b0: 55e7 193c 6f72 573c db17 a43c 30f6 f1bc
000002c0: e82a 9f3d 024d 363b fe4f 273e be87 573e
000002d0: 866c c83c d3a6 0f3c 5e87 24bc c780 353b
000002e0: e590 b03c 9f10 9f3c e548 e23d 352e 893e
000002f0: 4f9a a43c a489 233e 2bc9 9fbd 4b67 9e3c
00000300: 6202 323c c77e c53d 79bb 373d 04bf 97bc
00000310: dc3d f43c d635 d03b 1254 543d 6ff4 1ebd
00000320: 7a59 8ebb dd59 b33d 4dab 86bc 3641 34bd
00000330: e06b aebd 92dc 413d e7ab 3e3d 6fff efba
00000340: 7626 90bd 6951 293e 3a8b cbba 4099 11bd
00000350: 0b40 3fbc cff5 43bd 3c29 f53a 6727 183c
00000360: dcd8 423d 4740 453c 6409 043e 9746 cf3e
00000370: 064f bd3c c9a6 0fbd 3fdc 253d 2d04 17bc
00000380: 2520 2b3d 6a0f a5bd 1e86 c1bc daed c53a
00000390: 949d 80bc c9a3 153d f618 c7bc 806f 97ba
000003a0: e74d d03d 0260 723d ae34 553c a18e 773c
000003b0: 6fbb 113e 06db 2f3c 09de aa3c 800a 34bd
000003c0: 127e 103e b5dd 17bd 0647 df3e 94b2 e73e
000003d0: 88e0 ed3d ed51 8f3c 2e60 2cbc c59c c8bd
000003e0: 9b2c 7dba f960 13bb 85bd d43d 7ca8 7b3e
000003f0: 5dd7 593d 7ef7 c83c fe25 5a3e c0ec 65bd

bias f4 [31]
-0.25229156 0.061750893 -0.3383993 -0.17848682 -0.20777403 0.056149364 -0.37137228 -0.2421669
-0.032545377 -0.29583222 -0.068091854 -0.24892452 -0.22252019 -0.008045516 -0.40560043 -0.2647412
-0.43300077 -0.30268615 -0.3750918 -0.1355294 0.29075822 -0.20413789 1.2363236 0.17098203
-0.09750623 -0.1627768 -0.28707442 1.5512542 -0.2425817 0.29548126 -0.31590253
00000000: 5c2c 81be 81ee 7c3d ac42 adbe 40c5 36be
00000010: b7c2 54be e0fc 653d 8224 bebe 9afa 77be
00000020: 4d4e 05bd 5277 97be be73 8bbd 12e6 7ebe
00000030: 55dc 63be 57d1 03bc dcaa cfbe 298c 87be
00000040: 47b2 ddbe aef9 9abe 080c c0be 38c8 0abe
00000050: 43de 943e 8609 51be da3f 9e3f ea15 2f3e
00000060: 59b1 c7bd f6ae 26be 6bfb 92be 7f8f c63f
00000070: 5667 78be 5249 973e fabd a1be
