model_checkpoint/421_muzero_dynamics_function.pt (torch, 28543 bytes, 6 tensors)

weight f4 [64, 33]
0.25366658 -0.15277275 0.0034830223 0.15324248 0.5261568 -0.40045562 -0.016762761 0.4040504
0.09656667 0.37433875 -0.31073433 -0.057219677 0.25954342 0.15280214 0.16462934 -0.16605356
0.4822812 0.06226169 -0.8062366 0.2952541 -0.37119117 -0.09016444 -0.0628929 -0.013869889
0.3872988 -0.14816795 0.30109963 0.17417376 -0.08900962 -0.10217674 0.24297139 -0.056519385
0.1117971 0.016680613 -0.019126454 -0.011324285 0.043092933 0.0025938165 -0.011380384 -0.01775553
0.003759101 -0.0148261655 -0.0019596636 -0.009725575 -0.023746312 0.023178512 0.0017558354 -0.0047597946
-0.14804742 0.025840368 0.0292922 -0.06062917 -0.0052619996 -0.06453899 0.06853197 0.06283738
0.013719577 0.005066079 -0.039696507 0.0054569556 0.16457918 0.021357924 0.031698383 0.009288563
0.045983095 -0.05300334 -0.07556247 -0.1446017 -0.15904874 -0.038641866 -0.09242314 -0.17759287
-0.19756298 -0.11081013 -0.14992538 -0.091474466 -0.17178847 -0.18492875 -0.07965379 -0.1111642
-0.1514794 -0.13728322 0.20661744 0.06941405 -0.16752325 -0.11592308 -0.23016544 -0.051512748
0.08120439 0.046298258 -0.13138926 -0.21153104 0.02589192 0.51378536 -0.070009716 -0.052422155
-0.06768885 0.0013381508 0.12604886 -0.0007795624 -0.0067825164 -3.964547e-05 -0.011531914 -0.001147852
-0.038097516 -0.0024956188 -0.0016051254 -0.012054253 -0.00090688304 -0.0133370785 0.009153481 -0.0024831002
-0.018666562 0.0013365564 0.033095315 -0.000619469 -0.0033763992 -0.03943032 -0.0010732543 -0.017086001
-0.033260982 -0.06463482 -0.02358423 -0.011745632 0.0038434092 0.0065922756 -0.06280141 -0.012819796
-0.013924584 0.00029836083 -0.0404121 0.011367231 0.028643463 0.03337879 0.027093729 0.02947797
0.022106005 0.019582005 0.023630822 0.02392415 0.018004134 0.018771578 0.026517002 0.02255556
0.024927448 0.029310409 0.01991507 -0.003454552 0.004263291 0.01997312 0.024950162 0.019305479
0.015926449 0.028922314 0.039360553 0.011043867 0.018195389 0.028317114 0.021041537 0.031084275
0.028026802 0.029662551 0.029995115 0.015299784 0.023418682 0.23274508 0.11907974 0.23194666
0.1747518 0.3235498 0.1685875 0.31644613 0.3309953 0.35949543 0.3231687 0.22024673
0.21530747 0.21872169 0.29777232 0.31179926 -0.03739415 0.048285037 -0.20609379 0.24079572
0.35161096 0.38069394 0.20689897 0.10706472 0.17088114 0.42932913 0.19702344 0.053233165
-0.488736 0.07094983 -0.06154879 0.15908483 0.07188673 -0.14301431 -0.02692969 0.006979585
-0.010221623 -0.0065294234 -0.040983252 -0.00020022143 -0.018141348 -0.034399394 -0.030379802 -0.041798174
-0.009138685 -0.013632593 -0.008874905 -0.023389593 -0.023767164 -0.11021832 -0.028925512 0.0039422913
-0.055448323 -0.04082892 -0.042478714 0.022419509 0.0138806105 -0.01952577 -0.050110705 -0.01925013
-0.019932942 0.0039549186 0.0022026545 0.03088266 -0.012496988 -0.08514117 -0.017102035 -0.042116202
0.0073670624 0.03616176 -0.03552305 -0.044822477 0.22295095 0.094827786 -0.011430711 0.08682327
0.0023295288 0.15395796 0.05223686 -0.057839837 0.12363615 0.04742826 -0.12268173 -0.2693271
-0.19150181 0.5210331 -0.0035075396 0.330686 0.033802394 0.18650474 0.022833575 0.053880177
00000000: 96e0 813e 7670 1cbe 6b43 643b 99eb 1c3e
00000010: 36b2 063f 8508 cdbe 0f52 89bc b2df ce3e
00000020: bfc4 c53d 54a9 bf3e 9218 9fbe 2e5f 6abd
00000030: e0e2 843e 2a78 1c3e 9894 283e f209 2abe
00000040: 90ed f63e 1d06 7f3d 8665 4ebf 8c2b 973e
00000050: c50c bebe 22a8 b8bd fecd 80bd 883e 63bc
00000060: 074c c63e 57b9 17be bb29 9a3e 9b5a 323e
00000070: ad4a b6bd 0a42 d1bd 7ecd 783e df80 67bd
00000080: e1f5 e43d c8a5 883c 15af 9cbc 7e89 39bc
00000090: 3782 303d 05fd 293b ca74 3abc 0c74 91bc
000000a0: 405b 763b 72e9 72bc b36d 00bb 0558 1fbc
000000b0: a087 c2bc dde0 bd3c 0f24 e63a 0df8 9bbb
000000c0: be99 17be 2eaf d33c 32f6 ef3c 4b56 78bd
000000d0: da6c acbb 052d 84bd 7d5a 8c3d e2b0 803d
000000e0: 14c8 603c 5a01 a63b ce98 22bd 43d0 b23b
000000f0: 7287 283e d0f6 ae3c 2ad6 013d 0f2f 183c
00000100: c558 3c3d 081a 59bd 7fc0 9abd 7812 14be
00000110: acdd 22be ef46 1ebd 5848 bdbd e8da 35be
00000120: f34d 4abe 6cf0 e2bd 0a86 19be f756 bbbd
00000130: 51e9 2fbe f65d 3dbe 8721 a3bd 0eaa e3bd
00000140: 6a1d 1bbe f993 0cbe 8693 533e f428 8e3d
00000150: 378b 2bbe 1469 edbd 7db0 6bbe 08ff 52bd
00000160: 7d4e a63d 3ea3 3d3d e88a 06be 989b 58be
00000170: 4b1b d43c 7087 033f 4161 8fbd 9db8 56bd
00000180: 74a0 8abd e464 af3a f412 013e 8c5b 4cba
00000190: df3f debb 0049 26b8 5af0 3cbc 8673 96ba
000001a0: 240c 1cbd 898d 23bb 1263 d2ba 347f 45bc
000001b0: e4bb 6dba c383 5abc 7bf8 153c 82bb 22bb
000001c0: 9eea 98bc 642f af3a f48e 073d dc63 22ba
000001d0: 9446 5dbb b081 21bd 70ac 8cba f1f7 8bbc
000001e0: ab3c 08bd 435f 84bd b733 c1bc c070 40bc
000001f0: b5e1 7b3b 0404 d83b 079e 80bd 1f0a 52bc
00000200: f023 64bc 506d 9c39 2887 25bd 9f3d 3a3c
00000210: b2a5 ea3c 33b8 083d abf3 dd3c c97b f13c
00000220: a717 b53c 716a a03c 6d95 c13c 94fc c33c
00000230: 687d 933c dac6 993c 2f3a d93c 70c6 b83c
00000240: a634 cc3c 621c f03c ee24 a33c c465 62bb
00000250: 14b3 8b3b ab9e a33c 4864 cc3c 8626 9e3c
00000260: 2f78 823c 7dee ec3c 8838 213d 56f1 343c
00000270: 7f0e 953c 4bf9 e73c 4d5f ac3c 73a4 fe3c
00000280: 7798 e53c e1fe f23c 51b8 f53c f2ab 7a3c
00000290: 89d8 bf3c ba54 6e3e 14e0 f33d 6d83 6d3e
000002a0: 23f2 323e 52a8 a53e 34a2 2c3e 3a05 a23e
000002b0: 3778 a93e c90f b83e 5e76 a53e 5c88 613e
000002c0: 9079 5c3e 94f8 5f3e 9d75 983e 27a4 9f3e
000002d0: 9c2a 19bd 88c6 453d 400a 53be 2793 763e
000002e0: 5a06 b43e 51ea c23e 53dd 533e bf44 db3d
000002f0: 77fb 2e3e 07d1 db3e 83c0 493e 050b 5a3d
00000300: 9b3b fabe 254e 913d 961a 7cbd 22e7 223e
00000310: 5a39 933d 5872 12be a79b dcbc 01b5 e43b
00000320: 9878 27bc c6f4 d5bb 0ede 27bd 88f2 51b9
00000330: 2a9d 94bc 61e6 0cbd 10df f8bc 9034 2bbd
00000340: 6cba 15bc 3d5b 5fbc 0d68 11bc 889b bfbc
00000350: 5bb3 c2bc 24ba e1bd 32f5 ecbc 562e 813b
00000360: c81d 63bd 3a3c 27bd 29fe 2dbd 1ea9 b73c
00000370: 806b 633c 82f4 9fbc e240 4dbd 73b2 9dbc
00000380: 694a a3bc 4398 813b 695a 103b a2fd fc3c
00000390: 2bc0 4cbc 7e5e aebd 9119 8cbc 0a82 2cbd
000003a0: 6667 f13b 5b1e 143d 9e80 11bd c697 37bd
000003b0: 414d 643e 1235 c23d e047 3bbc 66d0 b13d
000003c0: 02ab 183b 28a7 1d3e 51f6 553d 77e9 6cbd
000003d0: f334 fd3d 2344 423d 8f40 fbbd 3ee5 89be
000003e0: 0d19 44be 6d62 053f c0de 65bb ad4f a93e
000003f0: 6174 0a3d 19fb 3e3e 7a0d bb3c 76b1 5c3d

bias f4 [64]
0.038785417 -0.011684701 0.17639992 -0.018635387 0.022921605 -0.1658864 -0.098304965 0.023918202
0.02227778 -0.017461749 -0.021040522 -0.02071824 0.021473223 -0.013547745 0.002042978 -0.3527334
-0.007905712 0.055838224 -0.008326761 0.03137916 0.4188065 0.014977511 -0.014399618 -0.009438717
-0.0015738907 0.11800522 -0.004567869 0.038752824 -0.01980959 0.025812326 0.026948642 0.007272211
-0.010579027 0.035000343 -0.0073367874 0.02835014 -0.021410212 -0.0063124383 -0.009283909 0.02182841
-0.009304574 0.028451664 0.018422294 -0.0029211442 1.0597383 -0.007702336 -0.011945378 -0.011459191
-0.010584051 0.601509 -0.0146760475 0.39330983 0.02084674 -0.04486223 0.018840114 0.037318908
0.030477487 0.5330464 -0.0032508567 0.027719492 -0.014440986 0.029731158 -0.0126534 0.028374553
00000000: 75dd 1e3d 3071 3fbc 2ea2 343e 3da9 98bc
00000010: 17c6 bb3c 20de 29be 1d54 c9bd 1bf0 c33c
00000020: e47f b63c f10b 8fbc 2c5d acbc 4cb9 a9bc
00000030: 9de8 af3c 5cf7 5dbc 7ce3 053b 7999 b4be
00000040: f686 01bc 9fb6 643d f86c 08bc 6f87 003d
00000050: ce6d d63e 3c64 753c 60ec 6bbc d9a4 1abc
00000060: 024b ceba b9ac f13d 10ae 95bb 48bb 1e3d
00000070: b947 a2bc 5f74 d33c 66c3 dc3c ba4b ee3b
00000080: a853 2dbc 855c 0f3d 6f69 f0bb 8e3e e83c
00000090: 7864 afbc 92d8 cebb 891b 18bc 7ed1 b23c
000000a0: 3672 18bc 7713 e93c 5aea 963c ab70 3fbb
000000b0: 81a5 873f e163 fcbb 8cb6 43bc 55bf 3bbc
000000c0: ba68 2dbc 7efc 193f ce73 70bc e85f c93e
000000d0: c8c6 aa3c 75c1 37bd 9556 9a3c b6db 183d
000000e0: ecab f93c bb75 083f 530c 55bb fd13 e33c
000000f0: e399 6cbc c28e f33c 3550 4fbc c071 e83c

weight f4 [31, 64]
-0.0002663369 0.0010997587 -0.00073562184 -0.0007922295 -1.41634955e-05 -0.0046323934 0.0038701578 -0.0007592222
0.00013521008 -0.0008141409 0.00011124198 0.0006163134 -7.894091e-05 -0.0004999971 -0.0023873113 0.011931265
-0.0017036642 -0.0033750394 -0.001309344 -0.001561356 -0.020274047 2.3804198e-05 -0.0009421357 -0.0013491338
0.0016630411 -0.005957196 -0.0006790587 -0.0014364609 0.0015192879 -0.00043218714 -0.00017312585 8.108973e-05
-0.00063341064 -0.0016336637 -0.0016303838 -0.0012275067 0.0016265775 -0.0013712324 -0.00027222626 0.00019678555
-0.0016781192 -0.00119756 0.00019947207 -0.008362864 -0.070296176 -0.0002275068 -0.0011381598 -0.00064597477
-0.0016156037 -0.03543316 0.0010988546 -0.022102462 0.00048343564 0.0017061261 -0.0007439249 -0.002127999
-0.0015005651 -0.025556104 0.0008422497 -0.00065092975 -0.00062564143 -0.0012521949 -0.0008824094 -0.001060942
-0.0003579812 0.0011136839 -0.0006204854 -0.0008121282 -0.00015718737 -0.004712313 0.0037270437 -0.0007407665
-5.0853472e-05 -0.00089917105 0.00012305213 0.00057913177 -0.00018952513 -0.0005756598 -0.002133901 0.011701412
-0.0017431264 -0.0031908215 -0.0013834342 -0.0014226916 -0.019933654 -6.3179235e-05 -0.00096116087 -0.0014199265
0.00175711 -0.005828722 -0.0005018817 -0.001450206 0.0014817124 -0.0005225981 -0.00035501213 9.790971e-05
-0.000724125 -0.0018584074 -0.0016750223 -0.0014085153 0.001651909 -0.0014361483 -0.00015777221 5.3140335e-05
-0.0017165291 -0.0013066174 0.00015077378 -0.008119717 -0.07031499 -0.000106826425 -0.0012065126 -0.00066547684
-0.0016432244 -0.03521833 0.001122478 -0.021854863 0.00031567918 0.0016551606 -0.00068307924 -0.0023107254
-0.0016805686 -0.02533809 0.00079399446 -0.0008240578 -0.00063108694 -0.0014545417 -0.0009610158 -0.0012059703
-0.00035777473 0.0010906092 -0.0006521263 -0.00081281894 -0.00016208875 -0.004711274 0.0037701132 -0.00074190233
-5.8138976e-05 -0.0009013847 0.00012342489 0.0005783153 -0.00019078294 -0.0005779956 -0.0021512136 0.011766652
-0.0017439515 -0.00321364 -0.0013858236 -0.0014466983 -0.020056 -5.6845078e-05 -0.0009615413 -0.0014222695
0.0017509481 -0.0058681485 -0.0005213786 -0.0014513332 0.0014808803 -0.0005259412 -0.0003626846 9.855015e-05
-0.00072633766 -0.001867792 -0.0016761054 -0.001416278 0.0016529096 -0.0014378517 -0.0001595956 4.6734815e-05
-0.0017175443 -0.0013116365 0.00014903134 -0.008163475 -0.07032318 -0.00012910814 -0.0012087278 -0.00066610513
-0.0016437727 -0.035261735 0.0011227784 -0.021930026 0.00030930422 0.0016659894 -0.0006854873 -0.0023202423
-0.0016866131 -0.025394857 0.00079384324 -0.0008322107 -0.0006311717 -0.0014651311 -0.00096404215 -0.0012123167
-0.00030265184 0.001087518 -0.00071581616 -0.0008000127 -6.9995935e-05 -0.0046621086 0.003837489 -0.0007529261
6.0772116e-05 -0.00084747496 0.00011629538 0.00060138217 -0.0001206919 -0.00052982103 -0.002298972 0.011886086
-0.0017197412 -0.0033155172 -0.0013393047 -0.0015191569 -0.020207249 -6.1374158e-06 -0.00094996014 -0.0013772994
0.0016986928 -0.005930439 -0.00061911443 -0.0014419111 0.0015058029 -0.00046682075 -0.0002437036 8.76223e-05
-0.000669422 -0.0017208895 -0.0016487763 -0.0012994364 0.0016349521 -0.0013976743 -0.00022718884 0.00013908587
-0.0016936723 -0.0012402541 0.00018066698 -0.008303973 -0.070315 -0.00019066449 -0.0011660231 -0.0006536277
-0.0016270595 -0.03537795 0.0011122492 -0.022040969 0.0004177136 0.0016900791 -0.0007224088 -0.0022012664
-0.0015715568 -0.025507879 0.00082519493 -0.00071946107 -0.00062786945 -0.0013307377 -0.0009139338 -0.0011187195
00000000: 22a3 8bb9 c725 903a bfd6 40ba 9fad 4fba
00000010: c09f 6db7 55cb 97bb 79a2 7d3b 8a06 47ba
00000020: 2ec7 0d39 126c 55ba 954a e938 1890 213a
00000030: 148d a5b8 3d12 03ba 7074 1cbb 5a7b 433c
00000040: 7c4d dfba c42f 5dbb 4b9e abba 6aa6 ccba
00000050: c215 a6bc 20af c737 a8f9 76ba 6bd5 b0ba
00000060: 66fa d93a 9534 c3bb dc02 32ba a147 bcba
00000070: d822 c73a 2d97 e2b9 1e89 35b9 b80e aa38
00000080: 780b 26ba a820 d6ba 9ab2 d5ba 4ae4 a0ba
00000090: e232 d53a edba b3ba 97b9 8eb9 3858 4e39
000000a0: 56f4 dbba 72f7 9cba 6029 5139 6504 09bc
000000b0: 71f7 8fbd e48e 6eb9 4e2e 95ba a256 29ba
000000c0: aac2 d3ba 5c22 11bd 7107 903a 3910 b5bc
000000d0: a275 fd39 18a0 df3a f403 43ba e675 0bbb
000000e0: 9cae c4ba 095b d1bc 6cca 5c3a 28a3 2aba
000000f0: 1602 24ba b020 a4ba 7e51 67ba 4e0f 8bba
00000100: 6caf bbb9 08f9 913a 12a8 22ba 00e5 54ba
00000110: aad2 24b9 bf69 9abb 6b41 743b 0030 42ba
00000120: 804b 55b8 59b6 6bba 8e07 0139 e0d0 173a
00000130: 44bb 46b9 e0e7 16ba ebd8 0bbb 47b7 3f3c
00000140: 9e79 e4ba 1a1d 51bb 5954 b5ba 9c79 baba
00000150: e74b a3bc 187f 84b8 6af6 7bba d41c baba
00000160: d44e e63a ddfe bebb b690 03ba d714 beba
00000170: 0536 c23a f7fe 08ba ec20 bab9 e054 cd38
00000180: 35d3 3dba ce95 f3ba 6c8c dbba ee9d b8ba
00000190: de84 d83a 243d bcba a86f 25b9 00e3 5e38
000001a0: 29fd e0ba ce42 abba 0719 1e39 9008 05bc
000001b0: 4e01 90bd 0008 e0b8 d823 9eba 6573 2eba
000001c0: 7661 d7ba 1841 10bd 1d20 933a f808 b3bc
000001d0: be81 a539 f9f1 d83a ac10 33ba 8a6f 17bb
000001e0: 8646 dcba d391 cfbc 1124 503a 9505 58ba
000001f0: 876f 25ba 52a6 beba aeec 7bba a611 9eba
00000200: b693 bbb9 c6f2 8e3a 75f3 2aba 5b13 55ba
00000210: 5ef6 29b9 0861 9abb 0114 773b 397c 42ba
00000220: 40da 73b8 e74a 6cba 9e6b 0139 159a 173a
00000230: e80c 48b9 a184 17ba 60fb 0cbb eac8 403c
00000240: 4d95 e4ba ef9b 52bb 86a4 b5ba 249f bdba
00000250: 7b4c a4bc f06c 6eb8 f20f 7cba 726b baba
00000260: 1280 e53a 9949 c0bb 20ad 08ba a93a beba
00000270: 191a c23a 51df 09ba b426 beb9 b5ac ce38
00000280: b267 3eba b3d0 f4ba c4b0 dbba 67a2 b9ba
00000290: 71a6 d83a 4c76 bcba 1e59 27b9 2005 4438
000002a0: 391f e1ba 38eb abba 4c45 1c39 19c0 05bc
000002b0: 9905 90bd 3461 07b9 2d6e 9eba 8f9d 2eba
000002c0: dc73 d7ba 9c6e 10bd 312a 933a 99a6 b3bc
000002d0: 1c2a a239 545d da3a 46b2 33ba 350f 18bb
000002e0: 5811 ddba e008 d0bc eb19 503a b728 5aba
000002f0: 3775 25ba a409 c0ba c6b7 7cba 99e6 9eba
00000300: 3ead 9eb9 0c8b 8e3a 9ca5 3bba f2b7 51ba
00000310: c8ca 92b8 9ac4 98bb 627e 7b3b 0460 45ba
00000320: 90e5 7e38 1529 5eba 9be3 f338 13a6 1d3a
00000330: f81b fdb8 b0e3 0aba 5aaa 16bb dcbd 423c
00000340: f068 e1ba 2649 59bb 9c8b afba 721e c7ba
00000350: ac89 a5bc 00f0 cdb6 bf06 79ba 8086 b4ba
00000360: aca6 de3a 2154 c2bb 114c 22ba 82fe bcba
00000370: 5c5e c53a 9fbf f4b9 b08a 7fb9 ddc1 b738
00000380: 267c 2fba 788f e1ba c11b d8ba da51 aaba
00000390: e44b d63a 2b32 b7ba 8a39 6eb9 94d7 1139
000003a0: 36fe ddba 0690 a2ba 6c71 3d39 630d 08bc
000003b0: 5001 90bd 1ced 47b9 3ed5 98ba 3658 2bba
000003c0: 0f43 d5ba 78e8 10bd e4c8 913a 438f b4bc
000003d0: 9200 db39 a585 dd3a 0960 3dba 1f43 10bb
000003e0: b2fc cdba e6f5 d0bc e551 583a 379a 3cba
000003f0: 9b97 24ba 266c aeba 0f95 6fba ffa1 92ba

bias f4 [31]
-0.018966654 -0.018936219 -0.018940732 -0.0189597 -0.019009013 -0.018963475 -0.018931484 -0.01893639
-0.018989138 -0.019000124 -0.018982964 -0.01896362 -0.018965054 -0.018937593 -0.018925985 -0.018982632
0.6252542 -0.01896 -0.018973151 -0.018926326 -0.018956253 -0.01896077 -0.018932499 -0.018962462
-0.018964667 -0.018964434 -0.018972255 -0.018943457 -0.018954696 -0.018923672 -0.018952863
00000000: f55f 9bbc 2120 9bbc 9829 9bbc 5f51 9bbc
00000010: cab8 9bbc 4a59 9bbc 3316 9bbc 7d20 9bbc
00000020: 1c8f 9bbc 26a6 9bbc 2982 9bbc 9859 9bbc
00000030: 9a5c 9bbc 0323 9bbc ab0a 9bbc 7781 9bbc
00000040: a910 203f 0052 9bbc 956d 9bbc 620b 9bbc
00000050: 254a 9bbc 9e53 9bbc 5418 9bbc 2a57 9bbc
00000060: ca5b 9bbc 4d5b 9bbc b46b 9bbc 4f2f 9bbc
00000070: e146 9bbc d105 9bbc 0943 9bbc

weight f4 [31, 64]
1.099732 0.03872582 -0.12163027 0.037171654 -0.077094264 0.6694667 0.0049535367 -0.57592785
-0.10852019 0.0013176498 0.012701 -0.13084921 0.039768063 -0.016432807 0.06673862 1.1208404
0.041434936 0.16018063 0.022678964 0.07247121 -0.32843915 -0.017661786 0.035631113 0.03150397
-0.15782614 0.11339681 -0.019998735 -1.044126 -0.07350578 -0.016352233 -0.097987525 0.033501085
-0.019454347 -0.09896 0.020744082 -0.11622675 -0.23836929 0.027491773 -0.0047194804 -0.07821413
0.022543909 -0.024888169 0.015268021 -0.22751944 -0.030209975 -0.002056856 -0.001410729 0.010535299
0.04419865 0.0997452 -0.0365967 0.029644227 -0.02597083 -0.03403463 0.16014759 -0.09720704
-0.10529188 -1.4164784 -0.05366753 -0.09645387 0.021782655 -0.104343906 0.009353229 -0.05934157
-1.2422553 -0.005318051 -0.35695538 0.25170445 0.070190914 0.02208975 -0.02999732 -0.4291091
0.13461946 0.18725644 0.31477752 -0.007520293 -0.22435781 0.11069973 0.12433195 0.45378378
0.15029992 0.03637655 0.13036594 0.10851933 -0.21343316 -0.13810124 0.21653813 0.14038858
-0.41982058 0.08950024 0.1648846 -0.2979356 0.40238103 -0.20263831 0.09150681 -0.18799143
0.13577637 0.12990798 0.14889169 0.12710735 -0.36698735 0.1329028 -0.14269666 0.07179977
0.15057206 -0.048444062 -0.23556314 -0.612539 0.08237159 0.14819239 0.17197354 0.23242633
0.16734302 -0.13192044 0.030739767 -0.1186417 -0.022479994 -0.0050641033 -0.1807829 0.10950937
0.12806085 -0.8520943 0.18946426 0.09276569 0.23206261 0.12274189 0.12638965 -0.018940357
-0.3807085 -0.007331495 -0.34239563 0.020702956 -0.074896075 0.5486045 -0.03104742 0.06444188
-0.072598755 0.08459562 0.033469196 0.15625122 -0.063711174 0.10003573 0.024413621 0.68730104
0.048000608 -0.077773854 0.061964016 0.03008338 -0.33978787 -0.082862906 0.015380742 0.06666177
-0.09963594 0.049065005 -0.004130518 0.019134337 0.019105367 -0.10675934 -0.080533944 -0.07317179
0.08228991 -0.08364323 0.04630549 -0.078980036 -0.013991845 0.060250435 0.0243578 -0.09284815
0.044420943 -0.08144962 -0.076789826 -1.0945597 -0.026353274 -0.005006005 0.051678255 -0.003957164
0.042629916 0.16377018 0.043552835 0.047703702 -0.039324775 -0.05395983 0.14088582 -0.068028904
-0.10559586 -1.2976239 -0.03188559 -0.09404966 0.01059618 -0.076560624 0.086639635 -0.09228384
0.44717398 -0.26075283 -0.021824693 0.08956214 -0.053278442 -0.37455684 -0.037941433 -0.50005406
-0.030418918 0.07081913 0.12869786 -0.0074579604 -0.22512072 0.028755512 0.12702732 0.65526116
0.031791177 0.22591558 0.024781115 0.106669 -0.05293149 -0.13172665 0.058408078 0.02955379
-0.16878861 0.20006055 0.12815017 -0.84960175 0.13171291 -0.1311984 -0.047785893 -0.11394912
0.028296927 -0.013915441 0.02733141 0.0010451532 -0.07505977 0.022816647 -0.11275572 -0.04875178
0.03941606 -0.08317158 -0.14741635 0.4517577 -0.09940884 0.11860125 0.043652236 0.05280817
0.0447181 -0.36200553 0.07235944 -0.1887384 -0.11969458 -0.037601605 0.04941708 -0.026901593
-0.0038783133 -1.0441018 -0.017729072 -0.03156136 0.066854104 -0.0049241143 0.03257558 -0.05305399
00000000: 05c4 8c3f f79e 1e3d 4a19 f9bd 4e41 183d
00000010: 99e3 9dbd 2b62 2b3f 4751 a23b 0270 13bf
00000020: d53f debd feb4 ac3a db17 503c 56fd 05be
00000030: d6e3 223d 189e 86bc 42ae 883d b377 8f3f
00000040: aeb7 293d 6406 243e 3cc9 b93c c96b 943d
00000050: 2d29 a8be 73af 90bc eef1 113d 4f0a 013d
00000060: 2d9d 21be 963c e83d 63d4 a3bc eca5 85bf
00000070: 338a 96bd 1ef5 85bc afad c8bd 6f38 093d
00000080: b95e 9fbc 8aab cabd 7eef a93c 4a08 eebd
00000090: 1417 74be 6d36 e13c dfa5 9abb bb2e a0bd
000000a0: 01ae b83c 46e2 cbbc b926 7a3c dbfa 68be
000000b0: e97a f7bc 51cc 06bb 36e8 b8ba 3f9c 2c3c
000000c0: a509 353d 3647 cc3d 6ce6 15bd 73d8 f23c
000000d0: c7c0 d4bc e567 0bbd bbfd 233e 7c14 c7bd
000000e0: 45a3 d7bd 2a4f b5bf 7cd2 5bbd 9b89 c5bd
000000f0: 8a71 b23c 42b2 d5bd 493e 193c 2510 73bd
00000100: 3902 9fbf 0c43 aebb dbc2 b6be 68df 803e
00000110: 41c0 8f3d 90f5 b43c f1bc f5bc 30b4 dbbe
00000120: afd9 093e 27c0 3f3e 852a a13e ca6c f6bb
00000130: 0ebe 65be 8ab6 e23d c0a1 fe3d 5956 e83e
00000140: 39e8 193e 94ff 143d a67e 053e 623f de3d
00000150: 398e 5abe 696a 0dbe 2cbc 5d3e 06c2 0f3e
00000160: b9f2 d6be e74b b73d 82d7 283e 048b 98be
00000170: e304 ce3e 6b80 4fbe ec67 bb3d d380 40be
00000180: f608 0b3e 9906 053e 1077 183e 6e28 023e
00000190: c4e5 bbbe ac17 083e 131f 12be c20b 933d
000001a0: 902f 1a3e 486d 46bd 7737 71be 5bcf 1cbf
000001b0: 70b2 a83d bfbf 173e d519 303e 2b01 6e3e
000001c0: f85b 2b3e 2716 07be f7d1 fb3c 6bfa f2bd
000001d0: f727 b8bc c7f0 a5bb 271f 39be 7346 e03d
000001e0: 6222 033e da22 5abf eb02 423e f0fb bd3d
000001f0: d2a1 6d3e 1a60 fb3d 4a6c 013e cf28 9bbc
00000200: 39ec c2be 0a3d f0bb 7b4e afbe 3f99 a93c
00000210: 1d63 99bd 5871 0c3f 2957 febc 1bfa 833d
00000220: a8ae 94bd 7840 ad3d ff16 093d 5200 203e
00000230: 017b 82bd 88df cc3d 13ff c73c f6f2 2f3f
00000240: 499c 443d e647 9fbd fbcd 7d3d 6c71 f63c
00000250: adf8 adbe 07b4 a9bd 82ff 7b3c f785 883d
00000260: ed0d ccbd 63f8 483d 4c59 87bb 9dbf 9c3c
00000270: dc82 9c3c a4a4 dabd fbee a4bd 17db 95bd
00000280: 9d87 a83d 244d abbd d3aa 3d3d 49c0 a1bd
00000290: 0d3e 65bc 29c9 763d 028a c73c 2c27 bebd
000002a0: bcf2 353d 0fcf a6bd fc43 9dbd 881a 8cbf
000002b0: d2e2 d7bc 6a09 a4bb 94ac 533d 19ab 81bb
000002c0: b59c 2e3d 5fb3 273e 7564 323d f564 433d
000002d0: 0413 21bd fc04 5dbd 5f44 103e bd52 8bbd
000002e0: a442 d8bd 8a18 a6bf 779a 02bd 1c9d c0bd
000002f0: 9a9b 2d3c d1cb 9cbd 1f70 b13d 4fff bcbd
00000300: fdf3 e43e 6581 85be b3c9 b2bc 5b6c b73d
00000310: 7f3a 5abd eac5 bfbe 7a68 1bbd 8b03 00bf
00000320: 1831 f9bc 9f09 913d 5fc9 033e e861 f4bb
00000330: 0c86 66be ae90 eb3c 7313 023e 32bf 273f
00000340: 7737 023d 6a56 673e c401 cb3c 4775 da3d
00000350: b1ce 58bd 5ae3 06be 4f3d 6f3d ca1a f23c
00000360: ecd6 2cbe acdc 4c3e cc39 033e 807f 59bf
00000370: c0df 063e e058 06be 24bb 43bd 285e e9bd
00000380: f5ce e73c 97fd 63bc 1fe6 df3c 86fd 883a
00000390: f0b8 99bd fae9 ba3c 79ec e6bd f2af 47bd
000003a0: bc72 213d dd55 aabd 50f4 16be c94c e73e
000003b0: dd96 cbbd 36e5 f23d b0cc 323d 614d 583d
000003c0: 542a 373d ca58 b9be 3031 943d a444 41be
000003d0: 6f22 f5bd 2404 1abd 9069 4a3d bb60 dcbc
000003e0: 4d2b 7ebb 21a5 85bf 8f3c 91bc 7c46 01bd
000003f0: ceea 883d 775a a1bb f96d 053d 244f 59bd

bias f4 [31]
-0.17763092 -0.06325385 -0.05811459 -0.21503298 -0.046369378 0.017630365 0.019252587 -0.0976734
-0.14754353 -0.1900291 -0.14753845 -0.021445658 -0.21246232 -0.003710418 -0.03613493 2.147666
0.1621055 -0.11708205 0.2452719 -0.12504645 0.28710172 -0.40166625 -0.04178324 0.06188683
-0.24698764 0.052578736 -0.42970186 0.37142625 -0.15291022 -0.23090976 -0.16390516
00000000: e1e4 35be 3c8b 81bd 9009 6ebd 9b31 5cbe
00000010: d1ed 3dbd 8e6d 903c 9ab7 9d3c fe08 c8bd
00000020: a715 17be fd96 42be 5214 17be ceae afbc
00000030: b98f 59be 7c2a 73bb 3802 14bd 5c73 0940
00000040: fcfe 253e b7c8 efbd 8f28 7b3e 2d0c 00be
00000050: fffe 923e 33a7 cdbe e724 2bbd 0b7d 7d3d
00000060: 54ea 7cbe cd5c 573d e201 dcbe 952b be3e
00000070: 7f94 1cbe 9c73 6cbe c1d6 27be
