model_checkpoint/421_muzero_dynamics_function.pt (torch, 28543 bytes, 6 tensors)

weight f4 [64, 33]
00000000: 5c81 cd3a a767 88bb 38ed a23b b690 1cbc
00000010: ccad 063a 4a57 133c 7602 bcbb d9a2 3dbc
00000020: c1e3 103b 2d8c 37bb a884 6d3a 3d3e 90bb
00000030: 8262 28bb 8e95 0dbb 3079 973a ea08 edbb
00000040: ae67 2ebb 41e6 88bb b7d0 fcba 9f9f 603b
00000050: ecad 24bb ca73 313a 4efd 1cbc 942a ed39
00000060: 7a57 8c3b 6f7e 86bc aa23 053b 9af3 86bb
00000070: a402 5abc 4082 bc38 b2a4 5ebb 0590 a33b
00000080: 519c 883b cf83 b63c 783f 673b 1c45 81bd
00000090: eb85 9e3d 6e90 62bd 2128 8d3d b7b6 e4bd
000000a0: 470c 16be d602 3b3e d319 a1bd 3546 3abd
000000b0: cc98 79bd 585e 9f3b b6eb 9dbd fea0 82be
000000c0: ab3e bebd eb19 873c b406 1ebd 38d0 073d
000000d0: 93a3 a63b ac7c 7cbc 445c 203d 4560 833e
000000e0: 48ce 9abd 5bd3 a8bd 8c0f 75bd 7ece bbbc
000000f0: b673 a4bd 2e1b f83d 1cb1 08bd c46f 14bd
00000100: 8e8e ea3d a254 1ebe 5226 373e ad75 d3be
00000110: f08d cbbe e822 53be b414 3bbe b849 a3be
00000120: 0d1c 0a3f e3cc 323f 4b0a ad3d 1ebe f53b
00000130: 2ce1 b73b e659 283f ab54 42be dcb7 313e
00000140: d87f 4f3e f255 c23d f1bd 99be 00b1 f13d
00000150: 0eb2 babe 18ff 9cbe 0ada 05be b6fa 6fbd
00000160: f3b7 d2bc 5233 05be 6da1 dcbc 1655 093e
00000170: 25c2 d03e fd03 c13d 95c9 1bbe 3b1e bdbd
00000180: 2a99 8b3e 7402 c03e 07c5 d93b d51b 20bc
00000190: f9b3 a7bb 54a6 a3bb 6564 1bbb e1b5 30bc
000001a0: 6fd7 2b3c 5450 8abc a3ea a2bc cd06 843c
000001b0: b5f0 36bc a4d1 aa3b 96d6 63bc fc2c 77bb
000001c0: f13b 5abc dcc4 a6bc dede f0bb 3ca4 8eba
000001d0: 8b33 5b3a 3db0 6d3a 37eb 55bb 50ae a5bb
000001e0: a089 1d3b d867 763c 2ee7 abbb 50bc 09bb
000001f0: f019 3fbc 3042 9fbb 3b74 97bb 8cc0 23bb
00000200: 1c68 2cbc abfa 81bc f18f 8dbc f516 dc3b
00000210: a8fa 42bc 042e 6bbc ea00 dabb 5347 dbbc
00000220: 3180 01bc 437c 7bbb a6cc 16bc 5c80 61bc
00000230: e0ea 0c3c 4a6f f1bb 0e85 17bc 7170 26bc
00000240: f3e9 48bc 7e5c 8abb 1a11 86bc a99b 47bc
00000250: 3f09 65bc 0ae0 52bc 7c0b 43bc 217e 1dbc
00000260: 0349 6ebc f08e eaba a420 4a3a 68db c3bb
00000270: f186 cbba 446f c9bc b0b7 80bb a0ed 0ebc
00000280: 3fae d5bc 0767 febb 79dd a2bb 3a18 1dbc
00000290: 1c2a 0bba 770c c0be a56e ca3c 4e65 2f3d
000002a0: a48c 9d3d 60a0 173d 6ca7 d23c ceb3 bbbc
000002b0: 1c13 8d3e e928 69bc 4396 e13e 325d 1a3f
000002c0: 824b a4bd 4e75 09be 2d3b 19be 711a eabe
000002d0: 6294 263f 15db 373e 422d 493f 142e bfbe
000002e0: 06b9 92be 86af 9a3e e1ee ad3d a0cb 223d
000002f0: 4d4f fc3e b030 093f 84ed 183f 6bd2 bc3d
00000300: 1f86 2f3f 68ce 39be a91d 6ebe a554 b23c
00000310: 7cce d6bd 45ba 1b3e ad9a 263c 7dd6 0bbd
00000320: 1a8b 90bd 3536 7e3c 5414 4cbd 3bd5 ca3b
00000330: 2e01 e3bc 823f 61bd bc95 e93b 7463 56bd
00000340: 0fe9 38bd 0953 85bc 4ea6 973c 46f3 d0bc
00000350: afd1 07be 3556 59bd 9adf b9bc ca01 3abd
00000360: 6c72 03bd 4dd5 05bd 63cd c7bc 8123 103b
00000370: d08b b03c 7b34 83bd 1067 3bbd a743 dcbc
00000380: e5da 48bc 7a48 52bd cd10 0c3d ca54 edbb
00000390: cfea d1bb 6f93 d1bd 7613 e5bc 9fca f5bb
000003a0: 729e bfba 3639 81ba ceee 7cbc 9ff7 efba
000003b0: 6449 06bc 7374 a1bc 5955 acbc b5ab 42bb
000003c0: e245 c4bc 156b b2bc 6f3f 86bc 91ca 32bc
000003d0: 4577 9cbc 6036 97bb 355d bcbc 7fb4 aebb
000003e0: 4e96 bfbc 8994 c13b 526d bf3b 54d4 83bc
000003f0: d238 e9bb 3335 123c 84ab 4dbc e052 c7bc
0.0015678811 -0.004162747 0.0049721263 -0.009555986 0.0005137592 0.008992979 -0.005737598 -0.01157447
0.0022108408 -0.0028007135 0.00090606 -0.0044019506 -0.002569348 -0.0021604034 0.0011556502 -0.0072337287
-0.002661209 -0.004177839 -0.0019288276 0.003427483 -0.002512808 0.0006769268 -0.009581877 0.00045235886
0.004282889 -0.01641771 0.0020315447 -0.004118395 -0.013306294 8.9887995e-05 -0.0033972678 0.0049915337
0.004169025 0.022279648 0.0035285633 -0.0631201 0.077403866 -0.05531352 0.068924196 -0.111676626
-0.14653121 0.182628 -0.07866254 -0.04547711 -0.060936734 0.0048635416 -0.07710974 -0.25513452
-0.09289297 0.01649185 -0.03858061 0.033157557 0.0050854175 -0.0154105835 0.03915049 0.25659385
-0.07558876 -0.08243438 -0.05982928 -0.022925612 -0.080298826 0.12114559 -0.03337203 -0.0362394
0.114529714 -0.15461972 0.17885712 -0.41300717 -0.39756727 -0.20618784 -0.18269616 -0.3189218
0.5394905 0.6984388 0.08449229 0.0074994704 0.0056115594 0.65762174 -0.18977611 0.17355293
0.20263612 0.09489049 -0.30027726 0.11801338 -0.3646397 -0.3066337 -0.13071457 -0.058588706
-0.02572248 -0.13007858 -0.026932443 0.13411364 0.4077312 0.09424589 -0.15213616 -0.09234282
0.27265292 0.37501872 0.006645802 -0.009772261 -0.00511789 -0.004994193 -0.0023710963 -0.010785551
0.010488375 -0.016884007 -0.019887274 0.016116524 -0.0111657875 0.0052129794 -0.013906142 -0.0037716022
-0.013319955 -0.020357542 -0.0073507866 -0.0010882686 0.00083618675 0.0009067094 -0.003264142 -0.00505618
0.002403833 0.015039407 -0.0052460646 -0.0021016784 -0.011663899 -0.004860185 -0.00462201 -0.0024986593
-0.0105228685 -0.015866598 -0.01728055 0.006716604 -0.011900581 -0.014354233 -0.006652941 -0.026767408
-0.007904098 -0.0038373626 -0.009204065 -0.013763513 0.00860092 -0.007368003 -0.009248031 -0.010158644
-0.012262809 -0.0042224517 -0.016365577 -0.012183108 -0.013979255 -0.012870798 -0.011904594 -0.009612591
-0.014543775 -0.0017895382 0.00077105523 -0.005977083 -0.0015527887 -0.024589188 -0.0039281473 -0.008723646
-0.026084064 -0.0077637467 -0.0049702493 -0.009588296 -0.0005308704 -0.3750951 0.024710963 0.04282122
0.07692841 0.03701818 0.025714599 -0.022912886 0.27553642 -0.014230945 0.44059953 0.60298455
-0.080222145 -0.13423654 -0.1496398 -0.45723298 0.65070164 0.17954667 0.7858468 -0.37339842
-0.28656787 0.3021204 0.08492828 0.039744973 0.49279252 0.53589916 0.5973742 0.092198215
0.6856403 -0.18145144 -0.23253502 0.021768877 -0.104886025 0.15207775 0.0101687135 -0.0341401
-0.070577815 0.015515854 -0.049824074 0.00618997 -0.027710523 -0.054992206 0.0071284454 -0.05234094
-0.045144137 -0.016274946 0.018511917 -0.025506627 -0.13263582 -0.05306073 -0.02268963 -0.045411862
-0.032091543 -0.032674123 -0.024389928 0.0021993818 0.021551043 -0.06406494 -0.045752585 -0.026887728
-0.01225922 -0.05133865 0.03419571 -0.0072427737 -0.006406165 -0.10233199 -0.027963381 -0.007500961
-0.0014619364 -0.0009858969 -0.015437795 -0.001830805 -0.008196209 -0.019708848 -0.02103679 -0.0029704396
-0.023959104 -0.021779576 -0.01638767 -0.010912553 -0.01909984 -0.0046146363 -0.022993663 -0.0053315754
-0.0233871 0.0059075993 0.0058418894 -0.016092457 -0.007117369 0.0089238165 -0.0125531 -0.02433151

bias f4 [64]
00000000: 17a0 a73b 9194 6abd fe42 b63e a54c ddbb
00000010: 49b7 4bbb cf50 95bc 2db0 0abe b2f5 8bbb
00000020: a5f2 233c 43c8 663c a11a 0e3c 7149 c3ba
00000030: 510f 513c 1686 77bc 9b36 a9ba 1ee8 00be
00000040: 7690 45bc 1c78 a2bc 3b88 60bc a0f0 c33d
00000050: 7aec 643e 2b49 2b3b 56ef e33a 4863 71bc
00000060: f679 223c 3f4e debc e9b7 ae3d 0a1b b23a
00000070: 9132 963b 7e0f 0dbb 8b89 dbbb 724e dabb
00000080: 084a cdbb 66f8 3abc 9a74 5cbc 62a7 db3b
00000090: 7416 743c cc99 67bc de38 0f3d c6a8 8fba
000000a0: f068 0dbc 48fe a538 df7d 0c3c 0f26 283e
000000b0: 2a6e cb3e aa41 873b 5b5e 7b3c 1005 573c
000000c0: ff06 4cbc e2c8 9e3f 7030 013c 43b1 d4bc
000000d0: 4a72 863b 7a38 60bd 986e dc3b f5c8 503a
000000e0: f6fe f1bb 25b4 413f 832d 193c 4863 703c
000000f0: 46e0 acba 15bc b7bb 5228 67bc 7541 35bb
0.0051155197 -0.05727059 0.35597986 -0.0067535215 -0.0031084588 -0.01822701 -0.13543768 -0.0042712325
0.010006581 0.014085832 0.008673341 -0.0014899207 0.012759999 -0.015107652 -0.001290995 -0.12588546
-0.012058368 -0.019832663 -0.013704355 0.0956738 0.22355834 0.002613614 0.0017390053 -0.014733143
0.009916773 -0.02713692 0.08531172 0.001358838 0.0045836647 -0.0021524127 -0.006699746 -0.0066621834
-0.0062649287 -0.011411762 -0.013455534 0.006703303 0.014897931 -0.014135789 0.034966342 -0.0010960333
-0.008630976 7.915177e-05 0.008574932 0.16420768 0.39732486 0.004127701 0.01534232 0.013123766
-0.01245284 1.2405055 0.007885084 -0.025963431 0.00410298 -0.05474136 0.006727051 0.0007964515
-0.00738513 0.75665504 0.00934923 0.014672108 -0.0013189397 -0.005607138 -0.014108734 -0.0027657424

weight f4 [31, 64]
00000000: ff2e 04ba 4f01 913b 01c4 67bc 6822 1b3b
00000010: c1bf 703a 40e0 20bb e8d2 ac3b 975b b53a
00000020: d398 20bb a16c 20bb 0c4f efba 7645 813a
00000030: a7d7 00bb 7b5e 0d3b c04b 67ba 9841 a63b
00000040: 589a e438 faf0 173b d7a3 b63a cb34 20bb
00000050: e8ec 99bc cca1 b0ba d057 0ab9 c671 003b
00000060: 602e 4637 02e4 193b 8aa5 8dbb 28b6 093a
00000070: 5b4d 17ba 2fc6 7b3a a8e8 913a 5a33 3b3a
00000080: 5859 fd3a 41ee 233b b0ec ac3a a89d a6ba
00000090: 77ac 0bbb ac90 ea3a 70f3 ac38 b85c d9b9
000000a0: ab00 dab8 0004 a634 08c1 ceba 3af7 d5ba
000000b0: d4f6 bbbc c14a b73a af38 45bb b4cb 8aba
000000c0: b454 623a c06b 99bd c6fd 8e39 b3d7 e839
000000d0: 16f5 24ba e5b1 663b 94f3 80b9 ea59 baba
000000e0: 6ab4 233b 3bd4 e1bc f840 20bb aa2c 56bb
000000f0: e4ce 1d3a 51b7 0d3a 7c2d c43a 80ea c138
00000100: 63ea 07ba 4d4e 903b 33db 66bc 1838 0b3b
00000110: a605 843a de2d 13bb 988d ab3b 8536 b03a
00000120: dc01 15bb 489a 2bbb 8ed5 04bb 3815 4a3a
00000130: 7e93 eeba 242e 0b3b e993 7cba 6d94 a53b
00000140: 001c 8036 aaf9 153b 7bfe b63a 4fd5 17bb
00000150: 70d8 98bc ac38 adba 06c9 f2b9 ddc6 ff3a
00000160: 20f9 5c38 f8df 1c3b 32c9 80bb 0ab4 d639
00000170: f7a1 51ba e637 833a 9ebd a13a d85a 423a
00000180: 9461 e93a 6897 223b bb2a ab3a 7f51 aaba
00000190: bff6 04bb 0c70 eb3a 1045 eeb8 0076 ebb9
000001a0: 1ce4 22b9 ec06 d0b8 7d98 a5ba dc3b dfba
000001b0: 7cc4 babc 3314 d63a 6015 4dbb a027 9fba
000001c0: 4ba7 593a f044 99bd eab9 9539 b9c0 c339
000001d0: fc9d 9fb9 bcb9 633b 87e1 8ab9 92a2 bfba
000001e0: d483 213b 34d2 e0bc 980d 12bb b4a0 4abb
000001f0: 8fee 9539 029b 353a 6866 c33a 40a9 6039
00000200: dcea 07ba 8687 903b d42e 67bc 7427 0a3b
00000210: db9b 843a a265 13bb a8ed ab3b 32d7 b03a
00000220: c03d 14bb 693a 2cbb f786 05bb 36f0 463a
00000230: f1b4 edba 5d16 0b3b 152a 7bba ced1 a53b
00000240: 00f3 c6b5 2ef8 153b 9a21 b73a ebb5 18bb
00000250: 15e2 98bc 2351 adba d2d5 fcb9 70ce ff3a
00000260: e865 5c38 841d 1b3b d4f2 80bb e24d d339
00000270: 6b95 54ba 7f77 833a b5ac a23a 2dbd 423a
00000280: c34a e83a 307e 223b b82a ab3a 4b65 aaba
00000290: e7b1 04bb d097 eb3a b003 f1b8 f777 ecb9
000002a0: bd56 25b9 0c05 dcb8 e403 a3ba 9e78 dfba
000002b0: 62f2 babc 2d4c d33a 6b81 4dbb 25b0 a0ba
000002c0: 804f 593a 3848 99bd 39b4 9539 47be ca39
000002d0: 0053 95b9 a349 643b 1ff4 8ab9 80f8 bfba
000002e0: 454a 213b d3ef e0bc 0484 11bb eec7 49bb
000002f0: 48ad 8b39 762e 383a 9173 c33a d8c7 6739
00000300: b3cf 06ba 95f0 903b d2af 67bc c70d 153b
00000310: 7a56 7a3a 351e 1cbb 4695 ac3b a949 b43a
00000320: f231 1cbb fbb2 24bb e595 f9ba 9ba2 6c3a
00000330: 5474 faba 986a 0c3b cad6 6eba ea25 a63b
00000340: acd3 8c38 9ed7 163b 8a6e b63a f1b5 1dbb
00000350: 0598 99bc 7ab1 afba 464b 88b9 c717 003b
00000360: 107d db37 90b0 193b 9a10 89bb 30a5 fb39
00000370: 8117 2eba aa2f 803a 2c30 983a 435d 3e3a
00000380: 54b1 f53a 857b 233b bce7 ab3a ca57 a8ba
00000390: 2139 09bb fe93 ea3a 80ad b337 604f e1b9
000003a0: 153d 04b9 b840 22b8 9c88 bfba a02d d9ba
000003b0: 7e9f bbbc b027 c13a a080 48bb 569f 91ba
000003c0: 0e7f 5e3a 4c60 99bd c23b 9339 f421 dd39
000003d0: b075 04ba bed0 653b bad0 84b9 5875 bcba
000003e0: cc2d 233b 8891 e1bc 4479 1bbb c4f2 51bb
000003f0: 7e89 fc39 99b4 1d3a ea98 c33a b64c 1639
-0.00050424034 0.004425205 -0.014145852 0.002367163 0.0009183847 -0.0024547726 0.0052741654 0.00138365
-0.0024505153 -0.002447881 -0.0018257811 0.000986262 -0.0019659789 0.0021571207 -0.00088232383 0.0050737374
0.00010900636 0.0023184405 0.0013934326 -0.002444553 -0.018789724 -0.0013475954 -0.00013193418 0.0019599064
1.1812517e-05 0.002348185 -0.0043227123 0.00052532787 -0.000577172 0.0009604422 0.0011131959 0.0007141136
0.0019328995 0.0025013837 0.0013193097 -0.001271178 -0.0021312514 0.0017895899 8.246943e-05 -0.00041458546
-0.000103951745 3.092282e-07 -0.001577408 -0.001632429 -0.022944845 0.001398407 -0.00300936 -0.0010589273
0.00086338376 -0.07491255 0.00027273427 0.00044411197 -0.0006292624 0.0035201248 -0.00024595542 -0.001421747
0.0024979361 -0.02756702 -0.0024452787 -0.003268043 0.0006019904 0.00054060394 0.0014967169 9.246636e-05
-0.00051847677 0.0044038654 -0.014090347 0.0021243151 0.0010072484 -0.002245776 0.005235385 0.0013443982
-0.0022736704 -0.0026184488 -0.002026889 0.00077088503 -0.0018201915 0.0021237219 -0.00096350774 0.005053094
3.817957e-06 0.0022884407 0.0013961339 -0.0023167913 -0.018657893 -0.0013215742 -0.0004630761 0.0019514222
5.2684103e-05 0.0023937207 -0.0039302344 0.000409514 -0.0007996852 0.0010011166 0.0012339836 0.00074140495
0.001780557 0.0024809483 0.0013058999 -0.0012994258 -0.0020288674 0.001796247 -0.00011361588 -0.0004491061
-0.00015534501 -9.919502e-05 -0.0012633946 -0.0017031389 -0.02279877 0.0016332924 -0.0031293258 -0.0012142546
0.00083028217 -0.07483852 0.0002855801 0.00037336888 -0.0003044455 0.0034748157 -0.00026489442 -0.0014620593
0.0024645226 -0.027443983 -0.0022285935 -0.003091854 0.00028597235 0.00069277 0.0014907839 0.00021425355
-0.0005184838 0.004410687 -0.014110286 0.0021080645 0.0010117249 -0.0022490998 0.0052468367 0.0013491868
-0.0022619814 -0.0026279932 -0.0020374635 0.0007588895 -0.001813559 0.0021223046 -0.0009581161 0.005060411
-1.4822872e-06 0.0022883522 0.0013971806 -0.002330179 -0.018662492 -0.0013223033 -0.00048224494 0.0019516479
5.2546995e-05 0.0023668716 -0.0039351974 0.00040303083 -0.0008109423 0.001003012 0.001241109 0.0007428702
0.0017722476 0.0024794452 0.0013058996 -0.0013000158 -0.002024764 0.0017974321 -0.00011492462 -0.00045102809
-0.00015767939 -0.000104913575 -0.0012437073 -0.0017049497 -0.022820655 0.0016120725 -0.0031357657 -0.0012259526
0.00082897395 -0.07484478 0.0002855377 0.0003867021 -0.00028481334 0.003483393 -0.00026503296 -0.0014646202
0.0024610918 -0.027458107 -0.0022203932 -0.0030789333 0.0002664125 0.0007025966 0.0014911761 0.00022104324
-0.0005142644 0.004423211 -0.01414104 0.0022743808 0.0009549629 -0.0023821716 0.005266818 0.0013754863
-0.002383348 -0.0025131095 -0.0019041864 0.00090269156 -0.0019108155 0.002142584 -0.00091109856 0.0050704377
6.715147e-05 0.0023016701 0.0013918441 -0.0024064744 -0.018749246 -0.0013404333 -0.00025996024 0.0019545422
2.6165071e-05 0.0023451187 -0.0041828873 0.00047997525 -0.00066410756 0.000977983 0.0011611036 0.0007261822
0.0018744865 0.002494545 0.0013115327 -0.0012843546 -0.0020938592 0.0017896888 2.1419255e-05 -0.00042974483
-0.00012611256 -3.8684084e-05 -0.0014612856 -0.0016569383 -0.0229032 0.0014736559 -0.0030594245 -0.0011110108
0.00084875606 -0.0748907 0.00028082548 0.00042177702 -0.0005052937 0.0035067047 -0.00025332515 -0.0014378233
0.0024899123 -0.027535215 -0.0023723403 -0.0032035569 0.00048167625 0.0006015986 0.0014922891 0.00014333692

bias f4 [31]
00000000: 7215 bcbc 0df8 bbbc 9ffa bbbc 5d0e bcbc
00000010: f72a bcbc 6510 bcbc f0f4 bbbc 49f7 bbbc
00000020: be1e bcbc 2f28 bcbc f619 bcbc 980d bcbc
00000030: c50c bcbc 94fb bbbc 72f1 bbbc f919 bcbc
00000040: 65ae 223f 8f09 bcbc c914 bcbc 0bed bbbc
00000050: 7208 bcbc 440c bcbc a0f2 bbbc 0a11 bcbc
00000060: 550d bcbc 350d bcbc 4415 bcbc 4201 bcbc
00000070: 1106 bcbc 6bef bbbc 2704 bcbc
-0.022959445 -0.022945428 -0.022946654 -0.022956068 -0.022969706 -0.022957036 -0.022943944 -0.022945063
-0.022963878 -0.02296838 -0.022961598 -0.0229557 -0.022955308 -0.02294711 -0.022942279 -0.022961603
0.63547355 -0.022953777 -0.02295913 -0.02294018 -0.022953246 -0.022955067 -0.022942841 -0.022957344
-0.022955576 -0.022955516 -0.022959359 -0.022949819 -0.022952111 -0.022941312 -0.022951199

weight f4 [31, 64]
00000000: 4d7f 25bd 4710 913e 0f06 a33f ed40 ce3d
00000010: 4342 d8bd 066a acbf 5daf 263e 9403 743b
00000020: cc0c c6bd 8e15 3e3d 6109 653d d99e ab3d
00000030: 6ca9 27bd c3bf a83d c3b2 ffbd 3db6 163e
00000040: 490f eb3b c864 ffbb 56ea 8e3d 5173 ef3c
00000050: 29b1 c13f db79 56bd a34e 993d 0868 a43d
00000060: 15cc 4fbc 09d4 1a3f 0bd9 88bf 2152 25bd
00000070: 1358 9c3d 24f3 e1bd 7d5a ffbd 1455 7dbd
00000080: 83b5 bf3d 1310 41bd 7b19 9b3d 67e9 03bd
00000090: 529b b63d 3ee0 9d3d 2ea5 54be a7e9 e9bc
000000a0: 5d58 6a3d 7e47 613c 773e 1cbd 0d19 963f
000000b0: 724f ba3f d766 1bbe eff5 543d 3b74 6b3d
000000c0: 843f 933d 8594 a8bf c388 9cbd 3b2d a3bd
000000d0: f83f 44bd 3d44 ef3d 83f1 cfbd ff90 e03b
000000e0: c108 c13c 4c29 3fbe edfd 253d 4fa9 6dbd
000000f0: b194 a53d 62fc 03be 6550 903d 2b6b a7bd
00000100: d8e5 8f3d a3bf e63e c8b3 c1bf 6869 533c
00000110: 04ad e9bd 3544 673d c8e9 963d 80d0 df3d
00000120: 51a5 d5bc 925c c63d e09f 8b3d 604e 0cbc
00000130: 63c4 babd bffb cb3c f0f1 09be 38b6 843d
00000140: 97e8 87bd 0ae3 12bf 5480 30bb ec52 8abf
00000150: 62aa 02c0 c17b 8ebd d929 7c3d 1f2d f63b
00000160: 2776 d13d aa77 15bf dd7c eabe 1d81 dcbd
00000170: 1bd1 eabc b343 38be 56f8 2bbe d067 54bd
00000180: 7f98 62bc 64d2 2dbe c25d 3f3b c116 3cbd
00000190: 82a1 d93d 8501 d03b 367d d7bd 0947 07be
000001a0: a288 863c c347 18be 6478 003a aef7 6f3c
000001b0: 11a5 bcbf 0011 25bf 9f41 ee3d b958 0cbc
000001c0: 03ce 0c3b a7ad 803f 61b3 c03d f6cd 46be
000001d0: 648a aa3d 92c5 af3d fc52 7a3d c07d 03be
000001e0: 8b22 e7bd 38c6 853d a3ee d03d 5003 a83c
000001f0: 6d1f 283d 9e3c abbc f7fa 17bc 27c7 a53c
00000200: ece0 1fbe 5218 e4be b475 d5bf 284e 9d3d
00000210: b825 c3bd fc9c a53e 7b52 42be 34fe aebd
00000220: ac6a 3dbd 5bde 1f3d ab60 503d 4eda ac3d
00000230: 47aa 9fbb 29f8 933d fcd0 a23d 5048 35be
00000240: fdbd d63d 0315 9cbf c923 823d 7c32 90bf
00000250: a91c 96c0 9b7d f23c 4233 a23d a667 8d3d
00000260: a0cf 4abe 287e 0ac0 cc3c abbf 1e3f 5d3e
00000270: 23d5 1f3c d048 1a3d 96b9 06bd f258 8d3d
00000280: 2d29 933d 5e27 ad3d ddc3 963d d989 d6bd
00000290: d3d2 e3bc 86d8 893d 6878 bf3e 8f6a d2bd
000002a0: 4a12 943d 427c 8fbc 9410 e3bd 4cf4 0ebe
000002b0: 7beb c2bf d38a 12c0 6ca6 c53c 6572 7d3d
000002c0: 6c3a 9c3d 84d5 1340 0c23 5cbe 1745 9dbe
000002d0: 4508 71be 0f4b e7bd d873 52be 5ecf e5bd
000002e0: 2d7a 13bd 94b2 a63f e652 abbd 86d7 c9bc
000002f0: 2e24 ae3d 2c6d 75bc 8f91 923d f08f 0fbb
00000300: 9170 60be ba68 ffbe 0288 37bf 262a 643c
00000310: 7907 7bbd dda9 48be 6dcf 44bd 0dc6 e8bc
00000320: 2932 ffbd f6a0 883c 2af7 f83b 027d 0b3d
00000330: 24df fdbd a89f dc3d 4cfa 94bd b6c1 7abd
00000340: 60d7 ac3d 3287 c3bc 679b b03d cd59 f5be
00000350: 7b30 3240 1f9a 27bd b169 253c f304 b73d
00000360: bd70 2cbe 04f5 0ebf 5ccb fe3f 96ad 273e
00000370: 017c 263c a85f 173d c37d db3b adce 0cbe
00000380: af53 5f3d ec7c 313c 5a6e d13d a081 12be
00000390: a67e a7bc a17c b83d 2874 573e 327d 3fbd
000003a0: 7cea af3d de2e 41be 36a8 f4bd 72e4 0dbf
000003b0: c838 29bf f17f 1340 edee 093c 6621 043d
000003c0: 9d46 c93d 1df1 01bf 8fd7 25be ff31 17be
000003d0: 14e4 2abe ee21 a3bd d826 68be 8b9a d9bd
000003e0: 205a f2bb 317b 3dbf cce2 9abd c848 0dbe
000003f0: e41f 843c 5a19 dfbd 6c5d c03d b62f bfbd
-0.040404607 0.2833273 1.2736224 0.10070977 -0.105595134 -1.3469856 0.16277833 0.0037233578
-0.096704096 0.046407275 0.055917148 0.08379907 -0.040933058 0.08239701 -0.12485268 0.14717956
0.007173453 -0.0077939965 0.0697829 0.029229792 1.513219 -0.052362304 0.07485702 0.08027655
-0.012682934 0.6047979 -1.0691236 -0.040361527 0.07633986 -0.110327035 -0.12468431 -0.061848715
0.093607925 -0.04713447 0.075732194 -0.03220501 0.08916344 0.077087864 -0.20766136 -0.028553797
0.057213176 0.013749955 -0.03814551 1.1726395 1.4555495 -0.15175949 0.051992353 0.057483893
0.07189849 -1.3170325 -0.07643273 -0.079676114 -0.047912568 0.11682937 -0.101534866 0.0068532224
0.023563745 -0.18668097 0.040525366 -0.058022793 0.08085001 -0.12889245 0.07046584 -0.081747375
0.07026261 0.45068082 -1.513299 0.012903549 -0.11409953 0.05646153 0.07368809 0.1092844
-0.026079806 0.09685625 0.06817603 -0.008563608 -0.09119489 0.024900315 -0.13471198 0.06480068
-0.0663616 -0.57377684 -0.0026931958 -1.0806556 -2.0416493 -0.06957198 0.061563347 0.007512703
0.10227614 -0.5838572 -0.45798388 -0.10766814 -0.028664162 -0.17994575 -0.16793951 -0.051856816
-0.013830303 -0.16974789 0.002920017 -0.045920137 0.10626508 0.0063478374 -0.10521929 -0.13210692
0.016422573 -0.14871125 0.0004900752 0.014646454 -1.4737874 -0.64479065 0.1163361 -0.008566075
0.0021485097 1.0052994 0.09409214 -0.19414505 0.08327177 0.085826054 0.061114296 -0.12840939
-0.112858854 0.06531948 0.10201766 0.020509392 0.041045595 -0.020902928 -0.009276143 0.020236565
-0.15613145 -0.44549805 -1.6676545 0.07680923 -0.09528679 0.32346332 -0.18976776 -0.08544579
-0.04624431 0.039030414 0.05087344 0.08440076 -0.0048725936 0.07225067 0.07950017 -0.17703366
0.10485456 -1.2193912 0.06354482 -1.1265407 -4.6909986 0.029600909 0.07919933 0.06904535
-0.19805765 -2.16395 -1.3377929 0.21606109 0.009755406 0.037667096 -0.032891832 0.069017306
0.07185588 0.08454774 0.07361577 -0.10475511 -0.02781049 0.06730752 0.3739655 -0.10274231
0.07230051 -0.017515305 -0.110871464 -0.1396038 -1.5228113 -2.2897232 0.024127208 0.061876673
0.076283306 2.309907 -0.21497744 -0.30716774 -0.23538311 -0.11293613 -0.20552003 -0.11221193
-0.036005188 1.3023248 -0.08365421 -0.024638902 0.085029945 -0.014979642 0.07156669 -0.0021905862
-0.2191794 -0.49884588 -0.71691906 0.013926065 -0.061286423 -0.19596048 -0.04804938 -0.02841475
-0.12460739 0.016678315 0.0075978236 0.034054764 -0.12396076 0.107726395 -0.07274303 -0.061219893
0.08439517 -0.023868177 0.08623391 -0.47920075 2.784209 -0.040918466 0.010096 0.08936491
-0.16839881 -0.55842614 1.990581 0.16374812 0.010161401 0.03695646 0.0066983416 -0.13750716
0.054523166 0.010833006 0.10226126 -0.1430726 -0.020446133 0.09008146 0.21040404 -0.046750255
0.08589646 -0.18865535 -0.11946146 -0.55426705 -0.66102266 2.304684 0.008418781 0.032258414
0.098279215 -0.50758535 -0.1619551 -0.14765166 -0.16688567 -0.07965456 -0.22671068 -0.1062518
-0.0073959976 -0.740161 -0.07562789 -0.13797295 0.016128488 -0.10893507 0.09392819 -0.09335272

bias f4 [31]
00000000: f61d debe f170 da3c 8046 383f eea5 a7be
00000010: b0e4 063e c7cb b6be 9aea f23d 0423 013e
00000020: 15a1 18be 3b42 f93d 71c9 a83d 8b60 28be
00000030: 49c9 20bf 01f0 b8bd 45e9 4540 5122 a73e
00000040: 6b5a 7abe 4075 403e bf9d bfbe 5115 5fbe
00000050: 3154 d5bc b09b adbe 32b7 edbd 8878 ad3e
00000060: ac87 7b3d 53cd a53d 08e1 6cbd f0ce 893e
00000070: e324 a1be d240 1cbf 1748 e8be
-0.43382233 0.026665183 0.71982574 -0.32743782 0.13173175 -0.35702345 0.11861153 0.12611014
-0.14905198 0.121708356 0.08241547 -0.16443078 -0.62807137 -0.09030152 3.0923626 0.3264337
-0.24448554 0.18794727 -0.37425038 -0.21785475 -0.026041122 -0.33907843 -0.11607207 0.3388102
0.061408684 0.08095803 -0.057831794 0.26915693 -0.31473455 -0.6103641 -0.453675
