model_checkpoint/421_muzero_prediction_function.pt (torch, 20431 bytes, 6 tensors)

weight f4 [64, 31]
-0.029485647 -0.19148028 -0.0077335085 0.0009356075 0.01096775 -0.0051850853 0.028217318 0.08156936
0.066113956 0.068598114 0.066275954 -0.052271765 -0.0037478027 -0.009864804 -0.026478512 -0.16969676
-0.2622559 -0.2012389 -0.15182346 0.080082394 0.082616486 -0.08665168 0.03159316 -9.316916e-05
0.05459343 -0.027844194 -0.11715586 0.31322646 -0.11566778 -0.32965142 -0.0035891864 0.012043217
-0.06942402 -0.042068146 0.020551378 0.014543207 -0.038931392 -0.043137718 -0.0012716311 -0.07159706
-0.011777299 -0.06140356 -0.063438766 0.009611146 0.038057473 0.02242773 -0.018072609 -0.024414532
0.01472076 -0.022707526 -0.059185844 -0.062053066 0.025948035 0.00017148489 -0.027897153 -0.00042053568
-0.05601576 -0.010447943 0.03350325 0.042932253 -0.095381126 -0.011245734 0.13236748 -1.2976086
-0.19301274 0.48781586 0.97913486 -0.37867898 -0.054808162 0.50164735 -0.3129606 0.3709776
-0.6479881 -0.16915965 0.69864094 1.2634648 0.2425734 -0.3228828 -0.96120805 -0.30798578
0.13343795 -0.27989268 -0.3036485 0.141786 -0.32709172 -0.34277263 0.9134292 -0.59173536
-0.50662684 0.22635579 0.28162444 -1.6072204 0.20845264 -0.005626721 -0.007996361 -0.003959168
-0.010587284 0.0006088001 -0.009373159 0.0033617166 -0.007487626 0.012571587 0.01378338 -0.001647877
0.01809574 0.009499468 0.0008216697 0.012144848 -0.014237878 -0.02580447 0.018448861 0.026425352
0.0062623387 -0.010492562 0.015394671 0.017079692 0.024122113 -0.015574316 0.031621866 0.050785713
-0.03711906 0.0065666083 -0.008791713 -0.016579524 -0.01850473 -0.01135892 -0.013455557 -0.0029252847
0.00044186885 0.012711795 -0.0060400576 -0.00263828 -0.023865012 -0.016598731 0.020399762 0.0061476035
-0.00564022 0.002449675 0.008274377 0.0070281085 -0.028844891 0.0054216394 0.019372592 -0.022894286
-0.0045920485 0.013743699 -0.011510117 -0.020328652 -0.017878927 -0.0025425092 -0.0050792466 -0.018842004
0.014404841 -0.01707363 -0.0075778207 -0.03073686 -0.17367485 -0.014234259 -0.017410781 -0.018046092
-0.0068245064 0.037197508 0.09164924 0.09035925 0.0665546 0.07773546 -0.068382725 -0.027005896
-0.08671223 -0.04067468 -0.21305951 -0.3045799 -0.23721834 -0.21798573 0.114516236 0.08268802
-0.11827932 0.0751457 0.005527444 0.04445689 -0.021370353 -0.1416184 0.38033527 -0.17107445
-0.30613112 -0.030839475 -0.00076528965 -0.039419424 -0.043442473 -0.011495061 0.027890807 -0.036439028
-0.027425604 -0.037136868 -0.029136391 0.0059570945 -0.019241503 0.009071384 -0.00202367 0.044602744
0.040141158 -0.042491555 -0.08360666 0.047025777 0.07416694 -0.047872126 -0.02579965 0.047783047
-0.0049414295 0.0017567314 -0.012008226 -0.0053197974 0.078946285 -0.054615777 0.042571444 -0.10672783
-0.019647313 0.003922743 -0.040287323 -0.020744031 0.0189649 0.012993089 -0.034645215 -0.03242027
0.0016234394 -0.0663051 -0.01787153 -0.04846223 -0.04413268 0.007132069 0.024458855 0.010911918
0.030824445 -0.0068772654 0.012579418 -0.022728782 -0.048049036 -0.052864186 0.009975759 0.0029216497
-0.03959644 -0.0065764035 -0.040431112 -0.019047426 0.07686778 0.038445067 -0.045813084 0.000287836
0.025086712 -0.0016571041 -0.010409022 0.009636054 0.004638611 0.025321843 0.0040343124 0.027564226
00000000: e28b f1bc 6813 44be 5f69 fdbb 8e43 753a
00000010: 14b2 333c a6e7 a9bb 0128 e73c d60d a73d
00000020: c166 873d 2b7d 8c3d b0bb 873d eb1a 56bd
00000030: b29d 75bb fd9f 21bc 77e9 d8bc fdc4 2dbe
00000040: 6846 86be 9211 4ebe 9c77 1bbe 3d02 a43d
00000050: d532 a93d 7076 b1bd d467 013d d063 c3b8
00000060: 5c9d 5f3d 8219 e4bc 69ef efbd 385f a03e
00000070: 3be3 ecbd 12c8 a8be 8e38 6bbb ea50 453c
00000080: 2e2e 8ebd a64f 2cbd 5d5b a83c a246 6e3c
00000090: 8676 1fbd 2db1 30bd dcac a6ba 7ba1 92bd
000000a0: 93f5 40bc 4d82 7bbd 2fec 81bd 1178 1d3c
000000b0: 27e2 1b3d 5cba b73c 020d 94bc fc00 c8bc
000000c0: 582f 713c 2205 babc db6c 72bd 5b2b 7ebd
000000d0: f990 d43c a0d0 3339 9288 e4bc 587b dcb9
000000e0: c870 65bd d92d 2bbc b43a 093d bbd9 2f3d
000000f0: 2e57 c3bd 0740 38bc 578b 073e 0a18 a6bf
00000100: 22a5 45be 00c3 f93e 95a8 7a3f 36e2 c1be
00000110: 867e 60bd f66b 003f 5f3c a0be c7f0 bd3e
00000120: 8ce2 25bf 3038 2dbe 22da 323f 37b9 a13f
00000130: 2965 783e e550 a5be bb11 76bf 50b0 9dbe
00000140: f5a3 083e 184e 8fbe d177 9bbe 5930 113e
00000150: 9178 a7be e57f afbe 7fd6 693f f87b 17bf
00000160: 4cb2 01bf d0c9 673e 1431 903e 66b9 cdbf
00000170: 9c74 553e 5b60 b8bb 2b03 03bc e9bb 81bb
00000180: 4a76 2dbc e297 1f3a e191 19bc 3f50 5c3b
00000190: c25a f5bb 0ff9 4d3c b0d3 613c 94fd d7ba
000001a0: 843d 943c a8a3 1b3c 5265 573a 2ffb 463c
000001b0: fd45 69bc e563 d3bc 1122 973c fb79 d83c
000001c0: 4e34 cd3b ffe8 2bbc ee39 7c3c b6ea 8b3c
000001d0: bd9b c53c 6a2b 7fbc ee85 013d ae04 503d
000001e0: 280a 18bd b42c d73b 1e0b 10bc c8d1 87bc
000001f0: 3b97 97bc c31a 3abc b274 5cbc 22b6 3fbb
00000200: a2aa e739 2245 503c adeb c5bb fee6 2cbb
00000210: 8f80 c3bc 10fa 87bc 671d a73c d671 c93b
00000220: 98d1 b8bb ba8a 203b 4191 073c 0c4c e63b
00000230: 1f4c ecbc 02a8 b13b 45b3 9e3c cc8c bbbc
00000240: e578 96bb 402d 613c ee94 3cbc 4688 a6bc
00000250: d476 92bc 3aa0 26bb cf6f a6bb 8c5a 9abc
00000260: 4802 6c3c ffdd 8bbc 5e4f f8bb decb fbbc
00000270: d2d7 31be cf36 69bc 0ea1 8ebc 66d5 93bc
00000280: 1ca0 dfbb 6a5c 183d 99b2 bb3d 450e b93d
00000290: c74d 883d c533 9f3d 3e0c 8cbd 783b ddbc
000002a0: 2f96 b1bd 7e9a 26bd 462c 5abe e6f1 9bbe
000002b0: 5de9 72be a737 5fbe 7d87 ea3d 5658 a93d
000002c0: 6e3c f2bd fde5 993d 901f b53b 6e18 363d
000002d0: e110 afbc 6a04 11be 4ebb c23e 242e 2fbe
000002e0: 38bd 9cbe 11a3 fcbc b89d 48ba 4376 21bd
000002f0: bcf0 31bd c855 3cbc 437b e43c 1741 15bd
00000300: a9ab e0bc d41c 18bd 71af eebc bb33 c33b
00000310: 5ba0 9dbc 24a0 143c 8c9f 04bb 5eb1 363d
00000320: 0e6b 243d a00b 2ebd f839 abbd 1a9e 403d
00000330: d6e4 973d 9015 44bd ca59 d3bc 28b8 433d
00000340: b7eb a1bb 2042 e63a 26be 44bc b251 aebb
00000350: 97ae a13d cbb4 5fbd 655f 2e3d 1f94 dabd
00000360: 67f3 a0bc 5a8a 803b 5204 25bd 63ef a9bc
00000370: 475c 9b3c f7e0 543c 24e8 0dbd 1ecb 04bd
00000380: 96c9 d43a f8ca 87bd 5167 92bc 5580 46bd
00000390: 78c4 34bd 22b4 e93b f05d c83c e7c7 323c
000003a0: 8c83 fc3c af5a e1bb e719 4e3c b631 babc
000003b0: 11cf 44bd 1e88 58bd 5e71 233c 2679 3f3b
000003c0: e02f 22bd df7e d7bb 189b 25bd 5909 9cbc
000003d0: db6c 9d3d 9378 1d3d 80a6 3bbd b2e8 9639
000003e0: a682 cd3c 3033 d9ba 9a8a 2abc 8ae0 1d3c
000003f0: 7dff 973b c16f cf3c 4432 843b 5fce e13c

bias f4 [64]
0.14721976 0.009131024 0.035156395 -0.01687861 0.0030430579 0.17872642 -0.026981479 0.002544569
-0.0075942012 0.044509493 0.011401016 0.007469276 -0.76008147 0.010426679 -0.021645835 0.00853759
-0.43596616 -0.03294094 -0.029708758 0.043640926 0.018852748 0.023404278 -0.27476618 -0.020487953
-0.00044767285 -0.0204378 -0.21625076 0.012817297 0.18719634 -0.019333452 -0.015474692 -0.0044009113
-0.22763802 0.033799578 -0.08506339 0.018786276 0.009515743 0.009387111 -0.13156167 -0.035232905
-0.6244276 -0.12865084 0.013260965 -0.0015350028 0.012636712 -0.010284554 0.010720764 -0.05348528
0.44939652 0.013378549 -0.012069233 -0.3975535 0.39429396 0.007805898 0.10002439 -0.007342267
-0.048606746 0.016414313 -0.016699329 0.008300737 0.016369717 -0.05577157 0.016651638 0.103640504
00000000: c7c0 163e 4a9a 153c 2700 103d 0345 8abc
00000010: 0a6e 473b 0f04 373e 4308 ddbc c9c2 263b
00000020: c7d8 f8bb 964f 363d 54cb 3a3c d4c0 f43b
00000030: b394 42bf a9d4 2a3c 9b52 b1bc 3fe1 0b3c
00000040: f536 dfbe 14ed 06bd c85f f3bc d4c0 323d
00000050: 1471 9a3c 54ba bf3c 27ae 8cbe 5ad6 a7bc
00000060: a2b5 eab9 2c6d a7bc d770 5dbe a4ff 513c
00000070: 66b0 3f3e 3061 9ebc 9089 7dbc 8535 90bb
00000080: f119 69be 6d71 0a3d b735 aebd ade5 993c
00000090: ebe7 1b3c 66cc 193c 1ab8 06be 6150 10bd
000000a0: 7dda 1fbf 0cbd 03be 8544 593c 2632 c9ba
000000b0: 360a 4f3c 8c80 28bc 25a6 2f3c 6213 5bbd
000000c0: 4d17 e63e b431 5b3c 08be 45bc 228c cbbe
000000d0: e6e0 c93e 9ec8 ff3b 96d9 cc3d 6697 f0bb
000000e0: de17 47bd 4f77 863c 08cd 88bc d0ff 073c
000000f0: c919 863c bb70 64bd 0469 883c 7941 d43d

weight f4 [2, 64]
-0.03230465 0.0142276725 0.046398003 -0.0094234 0.0018815098 -0.03751161 0.016378978 0.0076743052
0.020975249 0.029237311 0.033801977 -0.020210743 -0.03991083 0.017125806 -0.01813075 0.00321395
-0.4360886 -0.006765412 0.00893124 -0.0025914116 -0.015048123 -0.0175341 -0.08134553 0.027763724
-0.0014773493 0.014912975 -0.25124097 0.010559402 0.21471313 -0.020532442 -0.012114959 0.0052477745
-0.04587075 -0.004214235 -0.0067308163 0.02236515 0.028575568 0.0077953623 0.057127286 0.014493934
0.36064714 0.013976279 -0.025462309 0.0117188515 0.030718496 -0.007925369 -0.0037544637 0.0045551807
-0.05793278 -0.015014241 -0.18408523 0.11913545 -0.24172927 0.019315196 -0.006818088 0.025946956
-0.012202176 0.00620412 -0.0005873771 0.002802128 -0.006643136 0.0018698734 0.041366868 -0.023963664
0.03549007 -0.01370908 -0.051271576 0.008669469 -0.002549775 0.037498243 -0.021845724 -0.008277664
-0.025657726 -0.0299115 -0.034398485 0.021245247 0.03784322 -0.016494812 0.019342577 -0.0024990102
0.43422145 0.010458268 -0.010084123 0.004479157 0.012201062 0.017242447 0.0831633 -0.026792832
0.0038316923 -0.013979427 0.24800476 -0.010855771 -0.21441789 0.022220794 0.009147812 -0.004999172
0.046714775 0.0033579138 0.007335265 -0.026210465 -0.028322767 -0.0047142236 -0.055117413 -0.012191569
-0.36370903 -0.011652262 0.022869978 -0.00694329 -0.027026251 0.009964827 0.0007228897 0.0023397445
0.054471493 0.014743693 0.18486293 -0.11837103 0.24225006 -0.018356154 0.0034335335 -0.026316391
0.0075073405 -0.004113921 0.00050012 -0.0014954623 0.007938627 0.0012016025 -0.0430425 0.014399233
00000000: e151 04bd 2f1b 693c d50b 3e3d 9b64 1abc
00000010: fe9c f63a c6a5 19bd 352d 863c bd78 fb3b
00000020: 49d4 ab3c 1683 ef3c f173 0a3d 0091 a5bc
00000030: 8a79 23bd 6b4b 8c3c f086 94bc 22a1 523b
00000040: 0147 dfbe 64b0 ddbb 5654 123c acd4 29bb
00000050: 678c 76bc aca3 8fbc 7c98 a6bd c070 e33c
00000060: 9ea3 c1ba 8d55 743c a8a2 80be 5801 2d3c
00000070: c2dd 5b3e a733 a8bc d27d 46bc 86f5 ab3b
00000080: f8e2 3bbd 9117 8abb 2e8e dcbb 1e37 b73c
00000090: 4f17 ea3c 3d70 ff3b 4dfe 693d f777 6d3c
000000a0: bea6 b83e c3fc 643c 5596 d0bc 6d00 403c
000000b0: 5ba5 fb3c 68d9 01bc 730d 76bb a043 953b
000000c0: ec4a 6dbd 4bfe 75bc d780 3cbe 49fd f33d
000000d0: e187 77be e73a 9e3c 446a dfbb b68e d43c
000000e0: a3eb 47bc ee4b cb3b 36fa 19ba e8a3 373b
000000f0: aaae d9bb 8a16 f53a 4e70 293d 724f c4bc
00000100: 095e 113d 0d9c 60bc 2502 52bd 630a 0e3c
00000110: 201a 27bb c297 193d cef5 b2bc 0a9f 07bc
00000120: 2730 d2bc f608 f5bc 6de5 0cbd 830a ae3c
00000130: 7e01 1b3d 2120 87bc 5374 9e3c 6fc6 23bb
00000140: 4652 de3e 2859 2b3c e137 25bc e4c5 923b
00000150: f7e6 473c 0840 8d3c 8551 aa3d a47c dbbc
00000160: 211d 7b3b f709 65bc f6f4 7d3e 67dc 31bc
00000170: 5d90 5bbe 6208 b63c b4e0 153c 18d0 a3bb
00000180: fe57 3f3d 7210 5c3b aa5c f03b 54b7 d6bc
00000190: 2605 e8bc c679 9abb ccc2 61bd 26bf 47bc
000001a0: 1238 babe 21e9 3ebc d259 bb3c 8a84 e3bb
000001b0: 2866 ddbc 8443 233c 4e80 3d3a 6656 193b
000001c0: 801d 5f3d 888f 713c b54c 3d3e 836c f2bd
000001d0: 6610 783e a55f 96bc 2205 613b 7995 d7bc
000001e0: 2300 f63b 12ce 86bb 7c1a 033a 6303 c4ba
000001f0: 0411 023c 177f 9d3a 554d 30bd c3ea 6b3c

bias f4 [2]
-0.10362861 0.09657963
00000000: 3d3b d4bd 8bcb c53d

weight f4 [31, 64]
-2.0828269 0.6776982 1.2664409 -0.40425166 -0.36200902 -2.2421355 -0.26730153 0.96709985
0.7488229 0.26403496 0.76921743 -0.27103987 -1.0028201 0.85505396 -0.41492847 0.030864634
3.3298929 -0.69877714 -0.31307182 0.7752821 -0.33634657 -0.019889206 -1.4757227 -0.40456223
-0.316018 0.0217517 3.211524 0.6767081 1.2492303 0.15977593 -0.2506998 -0.29842675
-1.5651138 0.5462039 1.181146 0.7588356 0.75417465 -0.13914359 2.5223212 1.3980515
2.9654922 2.2936003 -0.24974118 0.8473974 0.74870265 -0.27716947 -0.3021798 1.068262
-6.0316443 -0.24512316 2.5169492 1.6978711 3.0091836 0.89744973 -1.7072113 1.443226
3.6429322 -0.3326876 0.60037833 -0.1355862 -0.32086712 1.0593507 0.76260847 -1.5773336
-2.1061034 0.6772378 1.2817794 -0.41477162 -0.354404 -2.2324548 -0.26864064 0.9768217
0.75596416 0.27720565 0.7804683 -0.2590911 -0.98611224 0.87165356 -0.40302798 0.042598635
3.320897 -0.7240287 -0.32020566 0.80114746 -0.33060154 -0.00462581 -1.4803296 -0.41202605
-0.34530178 0.02978529 3.2237127 0.69277346 1.2503706 0.17959735 -0.25960615 -0.31891605
-1.5973426 0.55012846 1.2012829 0.74886435 0.7556172 -0.1369898 2.5319757 1.4261801
2.9829926 2.3222954 -0.2528208 0.84533006 0.75407714 -0.26600906 -0.30447322 1.0661623
-6.065866 -0.25139064 2.5490513 1.6968089 3.026983 0.8975987 -1.7315385 1.4476968
3.6233811 -0.33728862 0.6165982 -0.14376694 -0.32148606 1.0842036 0.7835017 -1.5722907
-2.0817478 0.67330384 1.271729 -0.40092054 -0.34906173 -2.236111 -0.26422402 0.9656449
0.7468086 0.26484686 0.7757489 -0.26834476 -1.002441 0.8657788 -0.4140112 0.028925605
3.3225892 -0.7221877 -0.30507633 0.7935943 -0.33416876 -0.0040475447 -1.473806 -0.39798447
-0.32857534 0.018920572 3.2199655 0.69295734 1.2524031 0.16589089 -0.2724986 -0.30292815
-1.5652947 0.5513209 1.1909246 0.7551072 0.7530061 -0.12685616 2.5179765 1.4095194
2.9774637 2.3108711 -0.26183757 0.8275008 0.739451 -0.28359768 -0.31683335 1.0630833
-6.055778 -0.25107145 2.531871 1.6904526 3.00882 0.90860856 -1.7231228 1.4409028
3.653523 -0.32253742 0.61330324 -0.14096889 -0.32918856 1.0662394 0.77640545 -1.578626
-2.0946968 0.6746225 1.2670846 -0.40411443 -0.36124027 -2.2488203 -0.26507753 0.9621599
0.745029 0.26806515 0.7752379 -0.26565292 -0.9890754 0.86623216 -0.41531277 0.040914565
3.3221498 -0.71978533 -0.3086271 0.79765284 -0.33401838 -0.020273989 -1.4878619 -0.40412095
-0.33553106 0.022189984 3.2299945 0.6952964 1.2576003 0.17793469 -0.25516742 -0.3197913
-1.5924672 0.5627895 1.1912203 0.76124054 0.7651785 -0.1345708 2.5218742 1.4163733
2.975254 2.3025315 -0.24753806 0.8291889 0.7460623 -0.251404 -0.31171775 1.0591016
-6.0635066 -0.25698465 2.539202 1.6935016 3.0120447 0.9101878 -1.7142215 1.4500997
3.6472929 -0.3466109 0.6185056 -0.13428582 -0.31997287 1.0741934 0.7763208 -1.5694515
00000000: 094d 05c0 a17d 2d3f bc1a a23f 13fa cebe
00000010: 3f59 b9be 267f 0fc0 bfdb 88be db93 773f
00000020: dcb2 3f3f 972f 873e 6feb 443f bdc5 8abe
00000030: 695c 80bf d1e4 5a3f 8171 d4be d4d7 fc3c
00000040: f71c 5540 0fe3 32bf f34a a0be e378 463f
00000050: 9e35 acbe b0ee a2bc 7be4 bcbf c822 cfbe
00000060: 1ccd a1be 9f30 b23c 9c89 4d40 be3c 2d3f
00000070: c7e6 9f3f 4d9c 233e b95b 80be 64cb 98be
00000080: a655 c8bf 05d4 0b3f cb2f 973f 0d43 423f
00000090: 9711 413f a87b 0ebe b66d 2140 5af3 b23f
000000a0: a0ca 3d40 59ca 1240 27bc 7fbe 09ef 583f
000000b0: faaa 3f3f 28e9 8dbe 50b7 9abe cfbc 883f
000000c0: 3b03 c1c0 9101 7bbe b215 2140 d753 d93f
000000d0: 7796 4040 44bf 653f e685 dabf a1bb b83f
000000e0: cd25 6940 0756 aabe 65b2 193f 1cd7 0abe
000000f0: b248 a4be ce98 873f 4f3a 433f 11e6 c9bf
00000100: 66ca 06c0 755f 2d3f 5911 a43f f25c d4be
00000110: 7174 b5be 8ae0 0ec0 448b 89be fd10 7a3f
00000120: de86 413f e6ed 8d3e c5cc 473f 97a7 84be
00000130: da71 7cbf b024 5f3f af59 cebe e87b 2e3d
00000140: 9489 5440 f259 39bf fff1 a3be 0018 4d3f
00000150: 9b44 a9be 1b94 97bb 717b bdbf 14f5 d2be
00000160: 65cb b0be 4800 f43c 4f51 4e40 9a59 313f
00000170: 250c a03f 5ee8 373e 19eb 84be f748 a3be
00000180: b975 ccbf 38d5 0c3f a3c3 993f 93b5 3f3f
00000190: 2170 413f 0e47 0cbe e40b 2240 128d b63f
000001a0: 5ae9 3e40 7da0 1440 ba71 81be 8d67 583f
000001b0: 330b 413f 5732 88be eae3 9bbe 0278 883f
000001c0: 931b c2c0 46b6 80be a823 2340 0931 d93f
000001d0: 17ba 4140 07c9 653f 0ea3 ddbf 214e b93f
000001e0: 7ae5 6740 18b1 acbe 61d9 1d3f a437 13be
000001f0: d299 a4be 2fc7 8a3f 9193 483f d240 c9bf
00000200: 5b3b 05c0 a45d 2c3f 04c8 a23f 7545 cdbe
00000210: 38b8 b2be 711c 0fc0 5f48 87be 8134 773f
00000220: d92e 3f3f 029a 873e 7b97 463f 7c64 89be
00000230: fd4f 80bf aea3 5d3f 47f9 d3be 64f5 ec3c
00000240: 4da5 5440 4be1 38bf f732 9cbe ff28 4b3f
00000250: 2b18 abbe 44a1 84bb ada5 bcbf 9fc4 cbbe
00000260: 073b a8be 51ff 9a3c ea13 4e40 a765 313f
00000270: bf4e a03f 4ddf 293e f084 8bbe 6619 9bbe
00000280: 945b c8bf 5e23 0d3f 3870 983f b54e 413f
00000290: 02c5 403f 95e6 01be 8726 2140 226b b43f
000002a0: c48e 3e40 50e5 1340 930f 86be 18d7 533f
000002b0: a94c 3d3f b733 91be fb37 a2be 1d13 883f
000002c0: efc8 c1c0 708c 80be 2d0a 2240 c060 d83f
000002d0: 8290 4040 929a 683f 4a8f dcbf 816f b83f
000002e0: 52d3 6940 a023 a5be 7101 1d3f 265a 10be
000002f0: 678b a8be 887a 883f 82c2 463f 6b10 cabf
00000300: 830f 06c0 0fb4 2c3f d42f a23f 16e8 cebe
00000310: 7cf4 b8be acec 0fc0 3eb8 87be 1c50 763f
00000320: 38ba 3e3f d63f 893e fe75 463f a903 88be
00000330: 0c34 7dbf 64c1 5d3f e0a3 d4be 0896 273d
00000340: 1a9e 5440 da43 38bf 5f04 9ebe fa32 4c3f
00000350: 7504 abbe a315 a6bc 4272 bebf f1e8 cebe
00000360: baca abbe c5c7 b53c 3bb8 4e40 f2fe 313f
00000370: 0cf9 a03f 8334 363e 4ea5 82be afbb a3be
00000380: f7d5 cbbf f912 103f e879 983f a9e0 423f
00000390: bde2 433f eecc 09be 6366 2140 b84b b53f
000003a0: 906a 3e40 ad5c 1340 9e7a 7dbe b945 543f
000003b0: f0fd 3e3f 06b8 80be 7899 9fbe a490 873f
000003c0: 3f08 c2c0 7e93 83be 4982 2240 a9c4 d83f
000003d0: 57c5 4040 1102 693f 9c6b dbbf de9c b93f
000003e0: 3f6d 6940 fc76 b1be 6256 1e3f 3982 09be
000003f0: 7cd3 a3be 2b7f 893f f6bc 463f c9e3 c8bf

bias f4 [31]
-1.8421983 -1.8413782 -1.8432659 -1.865843 -1.854684 -1.8593473 -1.8376395 -1.8599708
-1.8474394 -1.8433573 -1.8578211 -1.8485799 -1.8488631 -1.8576905 -1.8494756 -1.8422096
-1.301681 1.1173403 1.2452029 0.06933778 0.24646965 0.016132535 -2.1119223 -0.70760053
0.059291888 0.6641913 -0.32218912 -1.8457085 -1.8558635 -1.8551719 -1.8297111
00000000: 27cd ebbf 48b2 ebbf 23f0 ebbf f2d3 eebf
00000010: 4966 edbf 18ff edbf c537 ebbf 8613 eebf
00000020: e578 ecbf 22f3 ebbf 15cd edbf 449e ecbf
00000030: 8ca7 ecbf cdc8 edbf 9ebb ecbf 86cd ebbf
00000040: 7c9d a6bf 0205 8f3f cf62 9f3f f700 8e3d
00000050: 8a62 7c3e 6128 843c bc29 07c0 4f25 35bf
00000060: 0ddc 723d 7108 2a3f f9f5 a4be 2d40 ecbf
00000070: ef8c edbf 4676 edbf f933 eabf
